Anul III/Semestrul I/CAVA/proiecte/flinstones-facial-detection-recognition/models/best_task1.pth (torch, 514194 bytes, 11 tensors)

weight f4 [16, 1, 3, 3]
0	0x3e7a3be6	0.24436912
1	0x3e708076	0.23486504
2	0xbe930ca2	-0.28720576
3	0x3e79c194	0.2439025
4	0x3e722fe1	0.23651077
5	0x3df3ea7f	0.11909961
6	0x3e541f03	0.20714955
7	0xbde53211	-0.1119119
8	0xbc82e53f	-0.015978454
9	0xbe7f656d	-0.24941035
10	0xbda1138f	-0.07865059
11	0xbe3f92c1	-0.18708326
12	0xbe83c618	-0.2573707
13	0x3ece5617	0.40300056
14	0x3ddf5195	0.109042324
15	0xbe8ce752	-0.27520233
16	0x3e0c3a02	0.13694003
17	0x3da9e6e7	0.08295994
18	0x3dc25c7e	0.09490298
19	0x3e92dfd4	0.28686392
20	0x3db8b7b0	0.090194106
21	0x3ca05085	0.019569645
22	0xbdbdf4e6	-0.09275226
23	0xbeaeb4ff	-0.34122464
24	0x3e81921b	0.25306782
25	0x3da3f984	0.08006576
26	0xbd9deab2	-0.0771078
27	0xbe76480c	-0.24050921
28	0xbe4f2af6	-0.20231232
29	0x3eb089f9	0.34480265
30	0x3ea606ea	0.3242715
31	0xbde272ba	-0.110570386
32	0xbd06d2f1	-0.032916013
33	0x3cccf141	0.025017383
34	0x3e2d0613	0.16896848
35	0xbe645463	-0.22297816
36	0x3cb28de7	0.02179618
37	0x3e637982	0.2221432
38	0xbc0ccbb5	-0.008593489
39	0x3dc22364	0.094794065
40	0xbda15d28	-0.07879096
41	0x3e084a76	0.13309655
42	0x3e881f05	0.26586166
43	0x3e828f25	0.25499836
44	0x3e828ae9	0.25496605
45	0xbe2815c3	-0.16414551
46	0xbe63214e	-0.22180673
47	0xbec5d756	-0.3864085
48	0x3e6b858a	0.2300016
49	0xbe125fdb	-0.14294378
50	0x3e89cf0b	0.26915774
51	0x3e804ede	0.2506017
52	0x3e89313c	0.26795375
53	0xbdcee23b	-0.10101744
54	0xbde43d10	-0.11144459
55	0xbdf9f386	-0.122046515
56	0x3d8878f4	0.06663695
57	0xbddf04dc	-0.10889599
58	0xbe9a5fff	-0.30151364
59	0xbdd59980	-0.104296684
60	0x3d131438	0.035907954
61	0x3d450448	0.048099786
62	0xbdd7690c	-0.10518083
63	0x3ea5f0e7	0.32410356
64	0x3e66bdce	0.22533342
65	0xbe39e55d	-0.18153901
66	0x3d63ee5c	0.05564724
67	0x3e9c868e	0.30571407
68	0xbe405a8d	-0.18784542
69	0xbe355d0f	-0.1771128
70	0xbe9e79e4	-0.3095237
71	0xbe0f58b0	-0.13998675
72	0xbe7e5b9e	-0.24839637
73	0x3c51ee13	0.012813109
74	0x3e759b5a	0.23985043
75	0x3d4231ab	0.04741065
76	0x3e03eaf9	0.12882604
77	0x3e365aa5	0.17808016
78	0x3e6b9e2e	0.2300956
79	0x3e105a8a	0.14097038
80	0x3e23e03b	0.16003506
81	0xbe3b4ebd	-0.18291755
82	0x3d9aae07	0.07552724
83	0xbd95835c	-0.073004454
84	0x3e0c4199	0.13696899
85	0xbe530084	-0.20605665
86	0x3e008061	0.12548973
87	0x3eba35cf	0.36369178
88	0xbea7a425	-0.3274242
89	0xbd5ec23f	-0.054384466
90	0xbe2b7af4	-0.16746122
91	0xbe718cd4	-0.23588878
92	0x3e0f6b4c	0.14005774
93	0xbcec22f1	-0.028825255
94	0xbea7b8b2	-0.327581
95	0xbea0b071	-0.31384614
96	0xbd780838	-0.060554713
97	0x3e0dfa07	0.13864909
98	0x3da3d144	0.079988986
99	0x3e4abed0	0.19799352
100	0xbe975b1c	-0.29561698
101	0x3d694c6d	0.05695765
102	0xbe99d59f	-0.30045792
103	0x3e8b89e1	0.2725363
104	0x3dae8568	0.08521539
105	0x3e357a04	0.17722327
106	0xbe04bd19	-0.1296276
107	0xbcaaf438	-0.020868406
108	0xbe6039ce	-0.2189705
109	0x3eb309c3	0.34968385
110	0x3e5e5a58	0.21714151
111	0xbce38e74	-0.027777888
112	0xbe8469c5	-0.25861946
113	0x3da26512	0.07929434
114	0x3e5f28a9	0.21792854
115	0x3c6c250b	0.014413129
116	0xbe6448ab	-0.22293346
117	0xbd9309c7	-0.07179599
118	0xbe91ba72	-0.2846256
119	0x3e081ea2	0.13292935
120	0xbe41f5db	-0.18941443
121	0xbdc7d4fb	-0.0975742
122	0x3e65465c	0.22390121
123	0xbe84aedb	-0.25914654
124	0x3e79f905	0.244114
125	0xbbb85ca1	-0.0056262766
126	0x3e96dbbd	0.29464522
127	0xbe7daa2f	-0.24771951
128	0x3ea32914	0.31867278
129	0xbe59a39b	-0.21253817
130	0xbe54449f	-0.20729302
131	0xbe5c27d9	-0.21499576
132	0x3d9f7339	0.07785649
133	0x3e8cdee2	0.27513796
134	0xbd97ae5e	-0.07406305
135	0x3eb65af4	0.35616267
136	0xbe98a2ee	-0.29811805
137	0xbe6e02ae	-0.2324321
138	0x3e79ce2e	0.24395058
139	0x3dd61de3	0.10454919
140	0xbe985fa3	-0.29760465
141	0x3e937647	0.28801176
142	0x3dffcfee	0.12490831
143	0xbea16a99	-0.3152664

bias f4 [16]
0	0x3ddc22a4	0.10748795
1	0xbe4b6dba	-0.19866076
2	0xbd498eab	-0.049208324
3	0xbe6bf8bf	-0.23044108
4	0xbe74f5b1	-0.23921849
5	0x3e4edd59	0.20201625
6	0xbdf0fbcc	-0.117667764
7	0xbda1854b	-0.07886752
8	0xbda44418	-0.080208
9	0x3cd19ac6	0.025586497
10	0x3e5ca940	0.21548939
11	0xbda34de5	-0.079738416
12	0xbd860170	-0.06543243
13	0x3e517dd4	0.20458156
14	0xbc68da4e	-0.014212204
15	0x3b849a33	0.0040467023

weight f4 [32, 16, 3, 3]
0	0x3d9df4a8	0.0771268
1	0x3cb8db5a	0.022565532
2	0x3da61760	0.08109927
3	0xbd5e50af	-0.054276165
4	0x3d19b327	0.03752437
5	0xbc18262a	-0.009286443
6	0xbd8b88ff	-0.06813239
7	0xbd94c502	-0.07264139
8	0x3dadea21	0.08491922
9	0x3cd06b83	0.02544189
10	0xbbc28068	-0.0059357174
11	0x3bd29760	0.0064267367
12	0xbc249759	-0.01004585
13	0xbd2c87b7	-0.042121615
14	0xbda88376	-0.08228199
15	0x3de023e4	0.109443456
16	0x3d911c2b	0.07085451
17	0xbd058cfe	-0.032605164
18	0xbc54088a	-0.012941489
19	0xbc67f541	-0.014157594
20	0xbd523a98	-0.05132541
21	0xbd22e561	-0.039769534
22	0xbd63b139	-0.055588935
23	0x3cf55a60	0.02995032
24	0xbdb38ba3	-0.08766868
25	0x3cc37fe8	0.023864701
26	0xbc63d814	-0.0139064975
27	0x3cee9b91	0.029126914
28	0xbd160338	-0.036624163
29	0xbd3fcfd4	-0.04682906
30	0x3c0ccafe	0.008593319
31	0xbe1e1a77	-0.15439783
32	0xbe2b8629	-0.16750397
33	0xbc61e842	-0.013788285
34	0xbdf433ce	-0.119239435
35	0xbd6a016e	-0.05713027
36	0xbcdc5c6d	-0.02689954
37	0xbc1da55b	-0.009621943
38	0x3cf7bd2f	0.030241577
39	0xbc8bb0bd	-0.017052049
40	0xbd92e7ac	-0.07173094
41	0xbd52d01b	-0.051467996
42	0x3cbc2492	0.022966657
43	0xbcbb672e	-0.022876348
44	0xbb2eeef4	-0.002669272
45	0xbd15a994	-0.036538675
46	0xbcf22196	-0.02955703
47	0xbd29a970	-0.041421354
48	0x3b591d86	0.003312917
49	0xbd00ae6e	-0.03141635
50	0x3d43a3a5	0.047763485
51	0x3d04faab	0.032465618
52	0x3dbe0f88	0.09280306
53	0x3dabf7fd	0.083969094
54	0xbd6cc090	-0.05780083
55	0x3c5bebb8	0.013422899
56	0x3d66cd96	0.056348406
57	0xbcffd520	-0.031229556
58	0xbd46b27e	-0.048510067
59	0x3d996c9f	0.07491421
60	0x3a5dd000	0.00084614754
61	0x3d76c482	0.060246
62	0xbd87c766	-0.06629829
63	0x3da3c629	0.079967804
64	0x3e861daf	0.26194522
65	0x3e39ece7	0.18156777
66	0x3d707e59	0.058714245
67	0x3dfc052f	0.12305676
68	0x3dd747ad	0.10511718
69	0x3d5251b9	0.051347468
70	0x3cd792eb	0.026315173
71	0x3d739966	0.059472464
72	0x3d1de10b	0.038544696
73	0xbcee9376	-0.02912305
74	0x3bdcdc17	0.006740104
75	0xbdb126ba	-0.08649965
76	0xbd57c3fa	-0.052677132
77	0xbcfa0ebc	-0.030524604
78	0x3d190317	0.037356462
79	0x3db07ffa	0.086181596
80	0xbd80a3c7	-0.06281238
81	0xbda2580e	-0.07926951
82	0xbdec767b	-0.11546036
83	0xbe669f4a	-0.22521701
84	0xbe681866	-0.22665557
85	0xbe4c28d6	-0.19937453
86	0xbe450e66	-0.19243774
87	0xbe0dcc49	-0.1384746
88	0xbe02247b	-0.12709229
89	0xbd29f31c	-0.041491613
90	0xbda35e11	-0.07976926
91	0x3d95984a	0.073044375
92	0xbd320196	-0.043458544
93	0x3db65e97	0.0890476
94	0x3cc58f55	0.024116198
95	0x3d8c8242	0.06860782
96	0x3d96fa29	0.07371933
97	0x3cde3bf1	0.027128192
98	0xbd0b6cb9	-0.034039233
99	0xbdc4ac88	-0.0960322
100	0x3d5948aa	0.053047813
101	0xbe019040	-0.12652683
102	0xbe5217c6	-0.20516881
103	0xbd8ffeed	-0.07031045
104	0xbd1d278d	-0.038367797
105	0xbdd334a6	-0.10312776
106	0xbd055198	-0.032548517
107	0x3d8b94a2	0.06815459
108	0xbdb13ed2	-0.0865456
109	0x3c64374f	0.013929202
110	0x3c7ddeae	0.0154949855
111	0xbdff78ee	-0.124742374
112	0xbdaeaf7f	-0.08529567
113	0xbb73ae0c	-0.0037182597
114	0xbe64ea75	-0.22355063
115	0xbdd163f7	-0.10224145
116	0xbdcd4e76	-0.10024731
117	0xbb1f1cc5	-0.0024278623
118	0xbcb67e08	-0.022276893
119	0x3da03a92	0.078236714
120	0xbd0c79a5	-0.034295697
121	0xbc42abb6	-0.011881759
122	0x3d003d4f	0.03130847
123	0xbd1513bb	-0.03639577
124	0x3d830c5d	0.063988425
125	0x3d99b290	0.07504761
126	0x3d991b88	0.07475954
127	0xbd020db6	-0.031751357
128	0xbcb5b685	-0.022181759
129	0xbcb7ee6c	-0.022452556
130	0x3d21683b	0.039406043
131	0xbdec3eee	-0.115354404
132	0xbdc0845c	-0.094002455
133	0xbd8eb305	-0.06967739
134	0xbdb82944	-0.08992246
135	0xbd88a923	-0.06672885
136	0xbdb9f16a	-0.09079249
137	0xbd2b58d2	-0.041832753
138	0xbe0ecc6b	-0.13945167
139	0xbe18fd5e	-0.14940402
140	0xbd7a6f35	-0.06114121
141	0xbdf78267	-0.12085419
142	0xbd3e0fd7	-0.046401825
143	0xbd3d1de2	-0.046171077
144	0x397cec15	0.0002412054
145	0xbd92cb48	-0.07167679
146	0x3c7cd4a9	0.0154315615
147	0xbd29729e	-0.041369073
148	0xbd925eb0	-0.071469665
149	0xbc83513d	-0.016029948
150	0x3cdb5a88	0.026776567
151	0xbc9c08d1	-0.019047173
152	0xbd072646	-0.032995485
153	0x3d61e155	0.055146534
154	0x3b81c339	0.00396004
155	0xbe2680df	-0.16260098
156	0xbe03a980	-0.12857628
157	0x3bf0fb89	0.007354204
158	0x3dd84226	0.10559492
159	0xbd681f77	-0.056670632
160	0x3d2e7535	0.042592246
161	0x3cb9a282	0.022660498
162	0x3ce88e23	0.028388089
163	0xbd3f08c6	-0.046639226
164	0x3d981469	0.07425768
165	0x3da22788	0.07917696
166	0xbd35a795	-0.04434927
167	0xbce283d3	-0.02765075
168	0xbc8a694f	-0.016895918
169	0x3dbd3d62	0.092402235
170	0x3dac8753	0.084242485
171	0x3d866079	0.065613694
172	0xbc5de350	-0.013542965
173	0xbd93de7f	-0.07220172
174	0x3db519e3	0.08842828
175	0x3dd2ffa6	0.10302667
176	0xbda67cd3	-0.08129277
177	0x3df0700b	0.117401205
178	0x3e09bda3	0.13451247
179	0xbc039471	-0.008030997
180	0xbd840ba7	-0.06447535
181	0x3c4994c3	0.012303534
182	0x3cc1bb91	0.023649009
183	0x3d81e265	0.063420095
184	0x3d5125c0	0.05106139
185	0x3b82cf85	0.0039920234
186	0x3c823e4f	0.015898852
187	0x3db0dddd	0.08636067
188	0xbd9bb594	-0.07602993
189	0xbd4e410b	-0.050355
190	0x3db4e2ea	0.08832343
191	0xbd788bf5	-0.06068035
192	0xbd4109fa	-0.047128655
193	0x3cc32de5	0.023825595
194	0x3d4b03dc	0.049564227
195	0xbd409b91	-0.04702336
196	0x3dc92201	0.09820939
197	0x3d3c4211	0.045961443
198	0xbd741b98	-0.059596628
199	0xbd9c679f	-0.07636952
200	0xbd6d8d13	-0.057995867
201	0x3d481d4e	0.048856072
202	0xbd0eadf3	-0.03483386
203	0xbd694976	-0.056954823
204	0x3d96e709	0.07368285
205	0xbd4eb500	-0.050465584
206	0x3cceeb0c	0.025258563
207	0xbcf21a90	-0.029553682
208	0xbe07fdfd	-0.13280483
209	0xbe2e394d	-0.17014046
210	0xbe479a79	-0.1949252
211	0x3c57b9bc	0.013166841
212	0xbda87edd	-0.08227322
213	0xbd5fc99a	-0.05463562
214	0x3cad8386	0.02118088
215	0x3abc4b63	0.0014365729
216	0x3bbe833f	0.0058139856
217	0xbc2ed982	-0.010671975
218	0xbc9ddcd6	-0.019270342
219	0x3d1e06d7	0.03858074
220	0x3c32d863	0.010915848
221	0xbd0ba0f3	-0.03408904
222	0x3cf31430	0.029672712
223	0xbd440b6f	-0.047862466
224	0x3d1897c4	0.03725411
225	0xbd83c57b	-0.06434151
226	0xbd94f0a8	-0.07272464
227	0xbce8db61	-0.02842492
228	0x3d98ed86	0.07467179
229	0x3d8f0df7	0.069850855
230	0x3ce30426	0.027711939
231	0x3d1cf120	0.038315892
232	0x3dc83bd8	0.09777039
233	0x3dd68c08	0.104759276
234	0xbd235041	-0.039871458
235	0x3d9d8654	0.07691637
236	0xbd0b0815	-0.033943255
237	0xbc5a3062	-0.013317199
238	0x3d65bb2d	0.056086708
239	0x3d3ba78a	0.045814075
240	0x3d30d2d0	0.043169796
241	0x3d6781ec	0.056520388
242	0x3d79484e	0.06085997
243	0x3da535fa	0.08066936
244	0x3da67345	0.08127455
245	0xbc76c03f	-0.0150604835
246	0x3e4336c1	0.19063856
247	0x3c5a00ec	0.013305884
248	0x3de15dcf	0.11004221
249	0x3de7458c	0.11292562
250	0x3d878566	0.066172406
251	0x3e290d58	0.16508996
252	0xbcffc58b	-0.031222126
253	0x3db4f88e	0.088364705
254	0x3dd45309	0.103674
255	0x3e17e240	0.14832401

bias f4 [32]
0	0x3d8e879b	0.069594584
1	0x3b438648	0.0029834677
2	0x3d49e314	0.049288824
3	0xbcba8dd6	-0.02277271
4	0x3dd0faa7	0.10204058
5	0xbc9cb422	-0.019128863
6	0xbd7b94f6	-0.061421357
7	0xbcb7f8ae	-0.022457447
8	0x3d86e13f	0.06585931
9	0xbd1f1b38	-0.038844317
10	0xbcb66973	-0.022267079
11	0x3d1cb35a	0.03825698
12	0x3d59314a	0.05302552
13	0x3c167e0c	0.009185325
14	0x3d800c7e	0.06252383
15	0x3bc32200	0.005954981
16	0x3d8e9864	0.0696266
17	0x3d6fea49	0.05857304
18	0xbc8f78a1	-0.017513575
19	0xb9548279	-0.000202665
20	0xbcd2a7e0	-0.025714815
21	0x3d87cd5d	0.06630967
22	0xbd94fba7	-0.072745614
23	0x3cc9d8df	0.024639545
24	0x3ba96a9f	0.005170181
25	0x3d9b0b8b	0.07570561
26	0xbcde91be	-0.027169105
27	0x3db833e0	0.08994269
28	0xbdab3ae5	-0.083608426
29	0xbc90046e	-0.017580237
30	0x3d43fea5	0.04785027
31	0xbdce23c0	-0.100654125

weight f4 [64, 32, 3, 3]
0	0xbc7759ed	-0.015097124
1	0x3ccd639d	0.025071913
2	0x3c929c3c	0.017896764
3	0xbda760cd	-0.0817276
4	0xbd9a9be9	-0.07549269
5	0xbd62220d	-0.055208255
6	0xbcab96f0	-0.020945996
7	0xbd22994f	-0.039696988
8	0xbcd5a82b	-0.026081165
9	0x3d9b6f49	0.07589585
10	0xbc590df8	-0.013247959
11	0xbcfe298f	-0.031025676
12	0x3bd5f754	0.006529728
13	0xbcc7c172	-0.024384234
14	0x3d64c0d4	0.055847958
15	0x3d8a4ab0	0.06752527
16	0x3d749cf3	0.05971999
17	0xbd4d01d5	-0.050050575
18	0xbd80335d	-0.06259797
19	0xbda7940b	-0.08182534
20	0xbd18ce7a	-0.037306286
21	0xbd1405e9	-0.03613845
22	0xbc7cf862	-0.015440078
23	0x3c932edb	0.017966678
24	0x3d0f720b	0.03502087
25	0xbd43a99c	-0.047769174
26	0x3cfbb4ae	0.030725803
27	0xbc7fb1ea	-0.015606383
28	0xbd0b0e27	-0.033949044
29	0xbd9b79a8	-0.075915635
30	0x3d548c0c	0.05189137
31	0xbc79b992	-0.015241997
32	0x3d1b51e0	0.03791988
33	0x3d37eaa5	0.04490151
34	0x3b04bb68	0.0020253304
35	0xbd1ccdf3	-0.038282346
36	0x3d612031	0.05496234
37	0x3da965e1	0.08271385
38	0x3db5282e	0.08845554
39	0xbc1a4220	-0.0094151795
40	0xbc559607	-0.013036258
41	0x3db83d13	0.08996024
42	0xbd916468	-0.07099229
43	0xbdc1e4e3	-0.09467485
44	0x3d2a833a	0.041629054
45	0x3cc0dd23	0.023542946
46	0xbb64d55f	-0.0034917218
47	0x3cbe430f	0.023225335
48	0x3d33f407	0.043933894
49	0xbc5af51a	-0.013364101
50	0xbd31dbda	-0.043422557
51	0x3d302ee4	0.04301347
52	0xbcb9a6e0	-0.02266258
53	0xbdab89a6	-0.08375864
54	0x3d217e0b	0.039426845
55	0x3c1e0348	0.009644337
56	0x3b6cffe6	0.003616327
57	0x3d7f8670	0.06238407
58	0xbd364b0e	-0.04450517
59	0x3bdf9f97	0.0068244445
60	0xbd410ee5	-0.047133345
61	0x3d84c0cc	0.064820856
62	0x3d5bdb9e	0.05367624
63	0x3d9e7fe9	0.07739241
64	0x3cf2af4f	0.02962461
65	0x3bb30aba	0.005463925
66	0x3d312fbe	0.04325842
67	0xbd07598c	-0.033044383
68	0x3d2d8e9a	0.042372324
69	0x3caab15b	0.020836523
70	0x3c560349	0.013062307
71	0xbcf51516	-0.029917281
72	0xbd8fd80a	-0.07023628
73	0xbcdc0ca4	-0.026861496
74	0xbd42707b	-0.04747055
75	0xbcdacc41	-0.026708724
76	0x3d30128c	0.042986438
77	0x3d2bd8d3	0.041954827
78	0xbc62c1be	-0.013840137
79	0xbd92d73a	-0.071699575
80	0x3da6815d	0.08130143
81	0x3e100ca0	0.14067316
82	0x3e1b4d87	0.15166293
83	0x3dc0eb1d	0.09419844
84	0x3cb01df6	0.021498661
85	0xbba48b52	-0.005021491
86	0x3c36d17f	0.011158346
87	0xbc59c0d6	-0.013290605
88	0xbc243ba6	-0.010023987
89	0x3defc4ca	0.117074564
90	0xbd223f20	-0.039610982
91	0xbd636775	-0.055518586
92	0xbd34725f	-0.044054385
93	0x3d30ca20	0.04316151
94	0xbd177f02	-0.03698636
95	0x3c49ecb5	0.012324502
96	0xbc648bec	-0.013949376
97	0x3d3257d1	0.04354078
98	0xbd5c0490	-0.05371529
99	0xbb7677d0	-0.0037608035
100	0xbda2a990	-0.07942498
101	0xbc0b47f9	-0.008501046
102	0xbceb3d63	-0.028715795
103	0xbd914d56	-0.07094829
104	0x3b4a3709	0.0030855557
105	0x3cd1f1e2	0.025628034
106	0xbc9a0401	-0.018800737
107	0xbd342c0c	-0.04398732
108	0xbd1fff40	-0.039061785
109	0x3d1a45f0	0.037664354
110	0x3d2848a4	0.0410849
111	0xbcbf3ed4	-0.023345388
112	0xbc8969cf	-0.016774086
113	0x3c9e9674	0.019358851
114	0x3d2544ff	0.040349003
115	0xbd5e5fa4	-0.05429043
116	0xbd30292e	-0.043008022
117	0x3cd8fcd4	0.026487745
118	0x3ca9c0d6	0.020721834
119	0x3d1894c9	0.037251268
120	0xbd574021	-0.052551392
121	0xbd0ea07d	-0.034821022
122	0xbd73d9a8	-0.059533745
123	0x3d649268	0.055803686
124	0xbc0fa540	-0.008767426
125	0x3d6779d9	0.056512687
126	0xbd9cf4e4	-0.07663897
127	0xbd50f667	-0.051016238
128	0xbc4b052e	-0.012391372
129	0xbbdb3296	-0.00668938
130	0x3a9baa7b	0.0011876369
131	0x3dd4755b	0.10373946
132	0xbd41fdc8	-0.047361165
133	0xbd6ddad4	-0.05807002
134	0xbbed61ab	-0.007244309
135	0xbd03e421	-0.032199983
136	0xba516034	-0.00079870527
137	0x3d2d57da	0.04232011
138	0x3d277265	0.04088058
139	0x3d963d3b	0.073358975
140	0x3c83c744	0.016086228
141	0x3d9712d3	0.07376637
142	0xbbb06218	-0.0053827874
143	0x3d576e3c	0.052595362
144	0x3d48e39a	0.049045183
145	0xbd05d362	-0.032672293
146	0xbcd7fb66	-0.026364993
147	0x3d4e7981	0.050408844
148	0x3c93766d	0.018000806
149	0x3d6504f5	0.05591293
150	0x3c81d0e0	0.01584667
151	0x3cfcfe30	0.030882925
152	0x3cb96d4c	0.022635125
153	0xbd75df68	-0.06002751
154	0x3ccc16f3	0.024913287
155	0xbcfc772f	-0.03081855
156	0x3c9cc84a	0.019138474
157	0xbcdda82f	-0.027057735
158	0x3c008899	0.007845067
159	0x3d105068	0.03523293
160	0xbcb47637	-0.022029025
161	0x3d200a94	0.039072588
162	0xbd90f3da	-0.07077761
163	0x3c30bb4a	0.010786841
164	0xbd8d0732	-0.06886138
165	0x3d1a58e4	0.03768243
166	0xbd36157d	-0.044454087
167	0x3cdbf176	0.026848536
168	0x3d1531fe	0.03642463
169	0x3cffb700	0.03121519
170	0xbcc8fc66	-0.024534415
171	0xbc0e107f	-0.008670925
172	0xbd26b560	-0.040700316
173	0xbd68f94d	-0.056878377
174	0xbc7dc1a1	-0.015488059
175	0x3ce61b15	0.028089086
176	0xbc9de010	-0.01927188
177	0xbd2315bf	-0.03981566
178	0xbd3a0839	-0.045417998
179	0xbd180933	-0.037118148
180	0xbdfa7c64	-0.12230757
181	0xbdfe1b35	-0.12407533
182	0xbb9e6c53	-0.0048346906
183	0xbe1f4023	-0.1555181
184	0xbd726217	-0.059175577
185	0xb8e8dce1	-0.00011103764
186	0xbe084b77	-0.13310038
187	0xbd7c602c	-0.061615154
188	0xbca82b50	-0.020528466
189	0xbb86e91d	-0.0041171447
190	0xbd516c5e	-0.051128738
191	0xbc81876d	-0.015811646
192	0xbd313b82	-0.04326964
193	0x3d05623c	0.032564387
194	0x3d9bf3de	0.07614873
195	0x3cdcac9a	0.026937772
196	0xbc8292f7	-0.015939219
197	0x3c354323	0.01106337
198	0xbd878969	-0.06618006
199	0xbd489968	-0.048974425
200	0x3c8551a7	0.016274286
201	0x3bf49fc2	0.0074653337
202	0xbcf17c56	-0.029478233
203	0xbcd8826e	-0.026429381
204	0x3ca260e2	0.019821588
205	0x3cdbf4d7	0.026850147
206	0xbc916456	-0.01774804
207	0xbd92f3d4	-0.07175413
208	0x3a861964	0.0010230956
209	0xbbfb6be7	-0.007672775
210	0x3b3e3193	0.0029021248
211	0xbbe59d18	-0.0070072524
212	0x3d73cf92	0.059524126
213	0x3d76874d	0.060187627
214	0xbd50145b	-0.050800662
215	0xbcdbad59	-0.026816057
216	0xbc42478e	-0.01185788
217	0xbd4bd1f0	-0.04976076
218	0x3cf81441	0.030283095
219	0x3cdded23	0.027090615
220	0x3c5ef362	0.013607832
221	0xbd8df911	-0.06932271
222	0x3cfeeff1	0.031120272
223	0x3d461c96	0.048367105
224	0xbd8b8875	-0.068131365
225	0xba9c4deb	-0.0011925077
226	0x3d2f51c9	0.042802606
227	0x3cfa94a0	0.030588448
228	0xbc833e68	-0.016020969
229	0x3cf75eec	0.03019663
230	0xbd0af5b0	-0.033925712
231	0xbc39c5f8	-0.011338703
232	0x3d4ef6bc	0.050528273
233	0x3d71eecd	0.05906563
234	0xbbb23a09	-0.0054390472
235	0xbd565c69	-0.052334223
236	0xbcc92f4d	-0.024558688
237	0xbd089e7a	-0.03335426
238	0xbd4d5c89	-0.050137077
239	0xbdc44c97	-0.09584921
240	0xbd5d1b07	-0.053980853
241	0xbe294859	-0.16531505
242	0xbe09b07d	-0.13446231
243	0xbc209b9c	-0.009802725
244	0xbdd7e327	-0.10541373
245	0xbd17e4cd	-0.037083436
246	0xbd1a8687	-0.03772595
247	0x3bc29a2b	0.0059387884
248	0xbc1f80e6	-0.009735322
249	0x3cffb935	0.031216243
250	0xbd4adc78	-0.04952666
251	0x3c12a8ba	0.00895136
252	0xbd9d4847	-0.076798014
253	0xbddb2954	-0.10701242
254	0xbd0c08a6	-0.034187935
255	0x3d07ad41	0.033124212

bias f4 [64]
0	0xbd236214	-0.039888456
1	0x3d332cb7	0.043743815
2	0xbccfb1d2	-0.025353346
3	0x3d308615	0.04309662
4	0xbd40f68f	-0.047110137
5	0xbd4a8b12	-0.049449034
6	0xbc501d6a	-0.012702325
7	0x3af75273	0.0018869176
8	0xbd13f7a3	-0.036124837
9	0x3d68b83d	0.05681633
10	0x3d5e68b1	0.05429906
11	0xbc9b4a7b	-0.018956413
12	0x3c86545c	0.016397648
13	0x3d21fda6	0.03954854
14	0xbcbe6d40	-0.023245454
15	0x3d478ed5	0.0487202
16	0x3cd4fab9	0.02599846
17	0x3c83eaf3	0.016103243
18	0xbd7b802f	-0.061401542
19	0xbc6d903a	-0.014499718
20	0xbca07e60	-0.01959151
21	0xbcf22fec	-0.029563867
22	0x38e03420	0.000106908614
23	0x3cd49db9	0.025954114
24	0xbcab8a1b	-0.020939877
25	0x3c346b6c	0.0110119395
26	0xbd01a63d	-0.031652678
27	0x3cfeb653	0.031092798
28	0x3c9f3f6a	0.019439418
29	0xbb29cf84	-0.0025911042
30	0x3b47df2f	0.0030498018
31	0x3c10858a	0.008820901
32	0x3cbc442f	0.022981731
33	0x3cc4dae1	0.02403015
34	0x3ccbceee	0.024878945
35	0xbd2e30df	-0.042527076
36	0x3d3e8710	0.046515524
37	0x3c94f68c	0.018183969
38	0x3cef2981	0.029194595
39	0x3c8e498c	0.017369054
40	0xbd4c137e	-0.049823277
41	0x3d126a2d	0.03574579
42	0x3d5fc06d	0.05462687
43	0xbccb18c5	-0.024792084
44	0x3d5e1f19	0.054228876
45	0xbcf44972	-0.029820178
46	0xbd3883de	-0.045047633
47	0x3d688b98	0.056773752
48	0x3adf250d	0.0017024592
49	0x3ce90869	0.028446393
50	0x3d8c7401	0.068580635
51	0xbbc6c663	-0.00606613
52	0xbcff7899	-0.031185435
53	0x3cb53255	0.022118727
54	0x3cb23c68	0.02175732
55	0xbcb9c729	-0.022677975
56	0xbaeeece0	-0.0018228553
57	0xbc4bf2ee	-0.012448056
58	0xbd0ee8a9	-0.03488985
59	0xbd0f1af2	-0.034937806
60	0x3c68e65f	0.014215081
61	0xbd09acbc	-0.033611998
62	0x3c9a798d	0.018856788
63	0xbc8dd30a	-0.017312545

weight f4 [64, 64, 3, 3]
0	0x3cf5d569	0.030008988
1	0x3ca7cbe9	0.020482974
2	0xbd59661e	-0.053075902
3	0xbd1969c1	-0.03745437
4	0xbd43de82	-0.04781962
5	0xbd4fea71	-0.05076069
6	0x3bbdd46c	0.005793145
7	0xbd21895e	-0.039437644
8	0xbcbaddbb	-0.022810807
9	0x3d7a0a1f	0.06104481
10	0xbc88a9c6	-0.016682517
11	0xbd0d6a50	-0.034525216
12	0x3c6d4ec8	0.014484115
13	0xbd3c7e43	-0.04601885
14	0xbd9faffa	-0.07797237
15	0x3da1794a	0.07884462
16	0x3de08cde	0.10964368
17	0x3d822237	0.06354182
18	0x3d1d3c67	0.038387682
19	0xbc94ea18	-0.01817803
20	0xbc38b626	-0.011273896
21	0xbab47d9c	-0.0013770345
22	0xbd033da7	-0.032041218
23	0xbda5ee77	-0.08102124
24	0x3d7a31d7	0.061082687
25	0xbc9c8a43	-0.019108897
26	0xbd51c8b4	-0.051216796
27	0xbca4e8b2	-0.020130489
28	0x3b16d89d	0.0023017295
29	0xbca92030	-0.020645231
30	0x3cd1f503	0.025629526
31	0x3c9d6057	0.019210977
32	0x3bc33e0a	0.0059583234
33	0xbd84ec7c	-0.06490418
34	0x3c8f03b9	0.01745783
35	0x3c33138f	0.010929956
36	0x3c269d4d	0.010169339
37	0x3ce07f93	0.027404582
38	0xbc0fe5f8	-0.008782856
39	0x3bfa77ab	0.00764366
40	0xbc7b2410	-0.015328422
41	0xbb25687c	-0.002523928
42	0x3d4d15f3	0.05006976
43	0x3b6c2029	0.003602991
44	0x3cb4674e	0.022021916
45	0x3d19bfc4	0.037536398
46	0x3c9e14e9	0.01929708
47	0x3c4b5471	0.012410269
48	0x3db42a10	0.08797085
49	0x3daf27fb	0.085525475
50	0xbdd80751	-0.105482705
51	0x3dd63c76	0.10460751
52	0x3d59399e	0.053033464
53	0xbd91386e	-0.07090841
54	0xbce1f140	-0.027580857
55	0x3d279842	0.04091669
56	0xbd4b76d0	-0.049673855
57	0x3d2062ba	0.039156653
58	0x3ab67e2d	0.0013923101
59	0x3cd050b2	0.025429104
60	0x3d287476	0.04112669
61	0xbbb9d08a	-0.0056706117
62	0x3d0f011a	0.03491316
63	0x3cce0752	0.025149975
64	0x3d64dafc	0.055872902
65	0x3cf4a672	0.029864524
66	0x3c2af4e4	0.010434363
67	0x3c61266d	0.013742072
68	0xbc13ad4f	-0.009013488
69	0x3c3dddff	0.0115885725
70	0xbdce3e78	-0.10070509
71	0xbd37fd58	-0.04491934
72	0x3c95cac6	0.018285166
73	0xbbb0dcf6	-0.0053974343
74	0x3c25d818	0.010122322
75	0xbcf5a48c	-0.029985689
76	0x3d29c958	0.041451782
77	0x3d1a02a3	0.03760017
78	0xbcab7439	-0.020929443
79	0xbc03f2fe	-0.008053539
80	0x3d1167c3	0.035499346
81	0xbced61f8	-0.02897738
82	0x3c46fc37	0.012145094
83	0xbca96394	-0.020677365
84	0xbdcd1250	-0.100132585
85	0xbd9f2488	-0.0777064
86	0xbd0689dd	-0.03284632
87	0x3d8534a1	0.06504179
88	0x3da1a2dc	0.07892391
89	0x3db44ae4	0.08803347
90	0x3d2f785b	0.04283939
91	0xbce76fff	-0.028251646
92	0xbd4b03e4	-0.049564257
93	0x3c75f5da	0.015012229
94	0xbc6af03d	-0.014339504
95	0x3cba6796	0.022754472
96	0xbc81a9be	-0.01582801
97	0xbd50f20a	-0.051012076
98	0x3bf49711	0.0074642976
99	0x3d7a96f2	0.06117911
100	0xb93356fb	-0.00017103173
101	0x3cdc0a87	0.026860489
102	0x3ca33348	0.019921914
103	0xbd88ae49	-0.06673867
104	0xbc9665f0	-0.018359154
105	0x3cdee6a5	0.02720959
106	0xbc092ab9	-0.008372002
107	0xbce29a4f	-0.02766147
108	0x3d02f96c	0.03197615
109	0x3d971af7	0.0737819
110	0xbcb3826d	-0.021912778
111	0x3b95c57b	0.0045706606
112	0xbcda84a2	-0.026674572
113	0xbd755c51	-0.059902493
114	0x3d93e61d	0.07221625
115	0x3d66fa84	0.056391254
116	0x3cd20451	0.025636824
117	0x3d55f515	0.05223568
118	0x3d24aeef	0.040205892
119	0x3cd10279	0.025513874
120	0x3d119b60	0.035548568
121	0x3c9d7979	0.019222962
122	0xbd38a10f	-0.045075472
123	0x3d3a6bdc	0.04551302
124	0x3c55b5b3	0.013043809
125	0xbd6b11b4	-0.05738993
126	0xbd4576cb	-0.048208993
127	0xbd17b381	-0.037036423
128	0x3d7b9c1a	0.061428167
129	0xbd0d15f4	-0.034444764
130	0xbd9320b4	-0.07183972
131	0xbd0e95c8	-0.03481081
132	0x3d2b7ad3	0.04186518
133	0xbd7f3160	-0.062302947
134	0x3d08194d	0.033227254
135	0xbcbb28c0	-0.02284658
136	0x3d36c15e	0.044618003
137	0x3d212c0b	0.039348643
138	0xbcca99b0	-0.024731487
139	0xbd86f522	-0.06589724
140	0x3c82b00e	0.01595309
141	0x3d301f4b	0.042998593
142	0xbd7cea08	-0.061746627
143	0xbc49ff41	-0.012328924
144	0x3c4f2b90	0.012644663
145	0x3c8ff149	0.017571108
146	0x3b1d3a89	0.0023991189
147	0xbcdc0b98	-0.026860997
148	0xbd28f632	-0.041250415
149	0x3c9b5b7e	0.018964525
150	0xbc9bf205	-0.019036302
151	0xbd5124bc	-0.051060423
152	0x3c968392	0.018373284
153	0xbb1164a3	-0.0022185228
154	0xbcf3b4c2	-0.029749278
155	0xba17de1f	-0.00057932915
156	0x3c590a67	0.013247109
157	0x3c0d28d2	0.008615689
158	0xbd61cedd	-0.05512892
159	0x3d79a1a1	0.060945157
160	0x3d62dc37	0.055385794
161	0x3dfa169c	0.12211344
162	0xbd0c937e	-0.034320347
163	0xbc834746	-0.016025197
164	0x3cf2df2d	0.029647434
165	0x3b9b40b6	0.0047379388
166	0xbbfd8455	-0.0077367225
167	0xbd12f8ec	-0.03588192
168	0x3d01939f	0.031634923
169	0xbbc0e51f	-0.0058866884
170	0x3d151857	0.036400165
171	0x3d137640	0.036001444
172	0x3c04651d	0.008080748
173	0x3a9ac272	0.0011807217
174	0x3b8dcd51	0.004327454
175	0xbd8aa27c	-0.06769273
176	0xbb9b7fc4	-0.0047454555
177	0xbbe81098	-0.0070820563
178	0x3c3c4c2d	0.011492771
179	0x3d19e68b	0.03757338
180	0x3a2550c5	0.0006306286
181	0xbc82d40c	-0.015970252
182	0xbbae1a4a	-0.0053131925
183	0xbc803afa	-0.015653122
184	0xbd1d723a	-0.038439013
185	0x3c0b728a	0.008511195
186	0xbc31b23d	-0.010845718
187	0xbd635321	-0.0554992
188	0x3cbd76e8	0.023127988
189	0xbcaca5f9	-0.021075236
190	0xbce487ce	-0.027896788
191	0xbc072223	-0.008247885
192	0xbd3e6750	-0.046485245
193	0xbd66bad0	-0.056330502
194	0xbdac2bb9	-0.08406777
195	0x3da53f7f	0.080687515
196	0x3c250a18	0.010073207
197	0x3bbc817d	0.005752741
198	0x3ca42c3c	0.020040624
199	0xbcc51d00	-0.02406168
200	0xbc8aef7e	-0.016959902
201	0xbc1ab349	-0.009442159
202	0xbcd58d8d	-0.026068473
203	0xbb14c251	-0.002269883
204	0xbc23acf4	-0.009989966
205	0x3c8f5450	0.017496258
206	0xbab9543b	-0.0014139483
207	0xbc0526cd	-0.008126927
208	0x3d044202	0.032289512
209	0xbd826a81	-0.0636797
210	0xbb665f2b	-0.003515194
211	0xbbee9c84	-0.0072818417
212	0xbc437477	-0.011929623
213	0xbd065473	-0.03279538
214	0xbd8f50da	-0.06997843
215	0xbd8b64fc	-0.068063706
216	0x3d3ac1b2	0.04559488
217	0x3d221f35	0.039580543
218	0x3c630fa1	0.013858707
219	0xbcfa1ee6	-0.030532312
220	0xbc63fb1a	-0.013914848
221	0xbcd4b3ed	-0.025964702
222	0xbd764a3d	-0.060129393
223	0xbd716c24	-0.05894102
224	0xbda49bc8	-0.080375254
225	0x3d39e5ca	0.04538516
226	0xbd1ae449	-0.037815366
227	0xbdb9fbc3	-0.09081223
228	0xbd29f54f	-0.04149371
229	0xbb47cb1a	-0.0030486048
230	0xbd08425c	-0.03326641
231	0x3cc6cdde	0.024268087
232	0x3cb4aae2	0.02205414
233	0x3d2c90f9	0.042130444
234	0xbc90f508	-0.017694965
235	0xbd1c9037	-0.03822347
236	0xbceae0b5	-0.028671602
237	0xbd878046	-0.06616263
238	0xbd56cc92	-0.052441187
239	0xbd23210d	-0.03982644
240	0x3d177ebc	0.036986098
241	0x3c24d23b	0.0100598885
242	0x3c97a20f	0.018509893
243	0x3d314c3f	0.043285605
244	0x3bd0d92d	0.0063735456
245	0xbab04a18	-0.0013449816
246	0x3a992cf1	0.0011686367
247	0xba351cef	-0.00069089135
248	0xbd032e53	-0.0320266
249	0xbb3c9b57	-0.0028779113
250	0x3bc23f31	0.005927943
251	0x3cbf082b	0.023319324
252	0x3cb816e3	0.02247185
253	0xbc2ce21a	-0.010551954
254	0x3d571082	0.052505977
255	0xbc2de5e3	-0.010613891

bias f4 [64]
0	0x3d03bf75	0.03216501
1	0xbc7f4ad0	-0.0155818015
2	0xbc4ee6f7	-0.0126283085
3	0x3cf432d2	0.02980939
4	0x3c6c8969	0.014437058
5	0xbca41bd6	-0.020032804
6	0x3ca879ef	0.020565955
7	0xbba75ac0	-0.005107254
8	0xbc6f89c1	-0.014620245
9	0xbcba2316	-0.022721808
10	0xbc7f24fd	-0.015572784
11	0xbce305b0	-0.027712673
12	0x3d2dc65b	0.042425495
13	0x3be9aec0	0.0071314275
14	0x3d0c3bce	0.03423672
15	0x3c6c7f68	0.014434673
16	0x3aa035da	0.001222308
17	0xbd0ea9ec	-0.03483002
18	0x3c9c61d3	0.019089615
19	0x3d24d177	0.040238824
20	0x3cce7c3b	0.025205722
21	0x398909be	0.00026137935
22	0x3cf952ad	0.03043493
23	0xbc3d577a	-0.011556501
24	0xbba989df	-0.005173906
25	0xbb8b26b9	-0.0042465595
26	0xbd396ca0	-0.04526961
27	0xbcf108ad	-0.029423082
28	0x3b140052	0.0022583199
29	0x3ce3706d	0.02776357
30	0xbd3af0ac	-0.04563968
31	0x3caa5eef	0.020797221
32	0xbc34fd56	-0.011046728
33	0x3d23dffa	0.040008523
34	0x3ca35ae9	0.01994081
35	0x3cbdee50	0.023184925
36	0x3cb6b7bf	0.022304414
37	0xba533e17	-0.00080582633
38	0xbbc10b7e	-0.0058912626
39	0xbd0baeea	-0.034102358
40	0x3c17f958	0.009275757
41	0x3c6be2c3	0.014397326
42	0x3c367f57	0.011138759
43	0x3c5c884c	0.01346023
44	0xbca64657	-0.020297213
45	0xbd13fb56	-0.036128365
46	0xbc8d4c08	-0.017248169
47	0xbc81295a	-0.015766788
48	0x3cd19b8c	0.025586866
49	0xbc9c8816	-0.01910786
50	0xbd4aeedd	-0.049544204
51	0x3cf82c0b	0.030294439
52	0x3cdba8a1	0.026813807
53	0x3d04a262	0.032381423
54	0x3cec867b	0.028872719
55	0x3c9d5910	0.019207507
56	0x3cba77c4	0.022762187
57	0x3c9f2594	0.019427098
58	0x3c0097d1	0.007848696
59	0x3d121db2	0.03567285
60	0xbccd0a1b	-0.025029233
61	0x3c812377	0.015763981
62	0xbc19d975	-0.009390225
63	0x3c2091de	0.009800402

weight f4 [256, 256]
0	0x3c9c63bd	0.019090528
1	0xbca7a9df	-0.020466743
2	0x3d368f88	0.044570476
3	0x3d90f078	0.07077116
4	0x3d8a8707	0.06764036
5	0x3da0f061	0.07858349
6	0x3a92fbb7	0.0011213933
7	0x3d9cb30d	0.07651339
8	0xbd3419c2	-0.043969877
9	0x3da975d4	0.08274427
10	0xbd22cadf	-0.039744254
11	0x3d9ca0d0	0.0764786
12	0x3c788367	0.0151680475
13	0x3d1c4861	0.038154963
14	0x3d6b5083	0.05744983
15	0x3d72bd7c	0.059262738
16	0x3d2319dc	0.039819583
17	0x3c0a1942	0.0084288735
18	0x3d46a9ce	0.048501782
19	0x3d801262	0.06253506
20	0xbcd09cbe	-0.025465365
21	0x3c0e04ee	0.0086681675
22	0xbd336fb9	-0.04380772
23	0x3ccfc35b	0.025361707
24	0xbcc052d8	-0.023477003
25	0xbd67ba9e	-0.056574456
26	0xbcc0b9f7	-0.023526175
27	0x3d456ccc	0.04819946
28	0xbca493c4	-0.020089991
29	0x3caa542e	0.020792093
30	0xbbe5c229	-0.007011671
31	0x3d377c54	0.044796303
32	0x3d8dbf45	0.069212474
33	0xbd005df7	-0.03133961
34	0x3ce9e474	0.028551318
35	0x3d676306	0.05649092
36	0x3cd7aaea	0.026326615
37	0x3da5c0e0	0.080934286
38	0x3d0bc203	0.03412057
39	0x3cc8caef	0.024510829
40	0x3d123170	0.03569168
41	0xbc67e052	-0.014152603
42	0x3cbedd25	0.02329881
43	0x3ca64e7b	0.020301094
44	0xbcbc2322	-0.022965971
45	0xbd9370af	-0.07199227
46	0xbdc515e0	-0.09623313
47	0xbdad1161	-0.084505804
48	0xbc5e7a34	-0.01357894
49	0xbd2c0efa	-0.04200647
50	0x3d5398a2	0.051659234
51	0x3d7cc0c7	0.061707284
52	0x3d1333a7	0.03593793
53	0x3d0d8949	0.034554753
54	0x3da09586	0.07841019
55	0xbd003547	-0.03130081
56	0x3d96b554	0.07358804
57	0x3d701035	0.058609206
58	0x3e0858f7	0.13315187
59	0xbc8baaa1	-0.017049136
60	0xbd2a38a1	-0.04155791
61	0x3da7ed54	0.081995636
62	0x3d651982	0.05593253
63	0x3d3ac00a	0.0455933
64	0x3d786409	0.060642276
65	0x3d18b9a9	0.037286434
66	0x3c5a6c0d	0.013331425
67	0x3c6e25aa	0.014535347
68	0x3d7a4307	0.06109908
69	0x3d5755a7	0.05257192
70	0xbcceefc5	-0.025260815
71	0x3e02d0dc	0.12774986
72	0x3b7b1618	0.003831273
73	0x3dcb6e99	0.09933204
74	0x3ddca512	0.10773672
75	0x3dfba7ba	0.12287851
76	0xbd422c67	-0.047405627
77	0x3d58c6a7	0.052923825
78	0x3dd6419f	0.10461735
79	0x3ba33f4c	0.004981911
80	0x3ba2f7ee	0.004973403
81	0xbe0945d0	-0.13405538
82	0xbb74dc29	-0.003736267
83	0x3d23cf7e	0.0399928
84	0xbd81264a	-0.06306131
85	0xbd665957	-0.056237545
86	0xb7e5765d	-2.7354045e-05
87	0x3bac9588	0.005266849
88	0x3d3b397f	0.04570913
89	0x3dba0f6d	0.090849735
90	0xbe08b308	-0.13349545
91	0x3dff6878	0.12471098
92	0xbd840f11	-0.06448186
93	0xbd40ea6f	-0.047098573
94	0x3da58305	0.080816306
95	0x3d9fe299	0.07806892
96	0xbd33d3d9	-0.043903206
97	0xbcf54dcc	-0.029944323
98	0xbd35df44	-0.044402376
99	0xbc4b52f0	-0.012409911
100	0x3cf6bd78	0.030119643
101	0x3d8239e3	0.06358697
102	0x3d141d09	0.036160503
103	0xbd56d44e	-0.052448563
104	0x3dcdb834	0.100448996
105	0x3decae75	0.115567125
106	0x3b83cace	0.004021979
107	0xbd29ce47	-0.041456487
108	0xbcfe6076	-0.031051856
109	0xbd3faf9b	-0.04679833
110	0x3d741097	0.059586134
111	0x3d7ff991	0.062493864
112	0x3d1590f8	0.036515206
113	0xbafbfd8b	-0.0019225342
114	0x3db80b20	0.08986497
115	0x3ddd34ef	0.10801112
116	0xbd9cfcb5	-0.076653875
117	0xbd76784a	-0.06017331
118	0xbda61b1f	-0.08110642
119	0xbd892088	-0.06695658
120	0xbc4c0026	-0.012451207
121	0x3d58dd34	0.05294533
122	0x3d959d27	0.07305365
123	0xbcf12ee4	-0.029441305
124	0x3d83d0a2	0.06436278
125	0x3daae0ee	0.08343683
126	0x3d9d72ce	0.07687913
127	0x3d38b728	0.045096546
128	0xbcb876e4	-0.022517629
129	0x3d678251	0.056520764
130	0x3c57d0b1	0.0131723145
131	0x3d87877b	0.06617638
132	0xbd8cec3c	-0.06880996
133	0x3e281905	0.16415794
134	0xbd0e1667	-0.034689333
135	0x3c8f7a62	0.017514411
136	0x3c3ce744	0.011529747
137	0x3d1c2258	0.03811869
138	0x3d383127	0.04496875
139	0x3da8b395	0.082373776
140	0xbb49e970	-0.0030809306
141	0xbc82a921	-0.015949788
142	0xbc9d3f74	-0.019195296
143	0xbcd0ead4	-0.0255026
144	0xbd79a9d1	-0.060952965
145	0x3db3e56f	0.08783995
146	0x3d70972b	0.058737915
147	0x3d85f9ac	0.06541762
148	0x3cecba88	0.028897539
149	0x3c8979ac	0.01678165
150	0x3cf2d230	0.02964124
151	0x3cff2638	0.031146154
152	0x3da68bcb	0.08132132
153	0x3a1fe908	0.0006100093
154	0x3d4f8a49	0.05066899
155	0xbc8d2ac1	-0.0172323
156	0xbc5ebea8	-0.013595261
157	0xbd5dcec8	-0.05415228
158	0xbcfbdd42	-0.030745152
159	0x3df76517	0.12079828
160	0x3d0c3968	0.034234434
161	0x3d64122f	0.055681404
162	0xbd020bcc	-0.03174953
163	0x3d9bba6a	0.07603915
164	0x3d92cbd1	0.07167781
165	0x3ccfe2b7	0.02537666
166	0x3d5ae367	0.053439524
167	0x3d317e96	0.043333612
168	0x3d7cd40e	0.06172567
169	0x3e15c67e	0.146265
170	0xbc053729	-0.008130827
171	0xbd42e3f2	-0.047580667
172	0xbbd3be43	-0.00646189
173	0x3d376c8f	0.044781264
174	0x3c925165	0.017861078
175	0x3bfc3ce1	0.007697687
176	0x3b863d2b	0.0040966473
177	0x3d39e766	0.045386694
178	0x3ce37b7f	0.027768848
179	0xbd7ff4dd	-0.06248938
180	0x3ca05f83	0.019576794
181	0x3ded30dc	0.11581585
182	0x3ba1b40a	0.0049347924
183	0x3cde6622	0.02714831
184	0x3da181f4	0.07886115
185	0xbd695b67	-0.056971934
186	0x3e23ffe4	0.16015583
187	0xbdb98b5e	-0.09059785
188	0x3d4648a7	0.04840913
189	0x3dd89fc7	0.1057735
190	0x3c790228	0.015198268
191	0x3d90b792	0.07066263
192	0x3c780447	0.015137739
193	0x3c2a0030	0.010376021
194	0xbcd0225e	-0.025407013
195	0xbbf31ffc	-0.0074195843
196	0xbbb07da3	-0.005386071
197	0x3da28bc3	0.07936814
198	0xbaea96b8	-0.0017897701
199	0xbdcc08a3	-0.09962585
200	0x3c8bd8c8	0.017071143
201	0x3c2545d1	0.010087446
202	0x3d9529f1	0.0728339
203	0x3d30133f	0.042987105
204	0xbd2ed945	-0.042687673
205	0xbce5a691	-0.028033527
206	0xbd88192f	-0.066454284
207	0xbd3b4729	-0.04572216
208	0xbd3db174	-0.04631181
209	0xbbf576d1	-0.0074909707
210	0x3ce120ff	0.027481554
211	0x3d558a74	0.052133992
212	0x3aaa87f9	0.0013010494
213	0xbcc8d35e	-0.02451485
214	0x3d2239f8	0.039606065
215	0xbd538bba	-0.051646926
216	0x3d5c549a	0.05379162
217	0xbd47578e	-0.048667483
218	0xbd8089da	-0.06276293
219	0xbd0d56a8	-0.03450647
220	0xbc341443	-0.010991159
221	0x3b75bfda	0.0037498386
222	0xbcd969e9	-0.02653976
223	0x3dd9acea	0.10628684
224	0x3b868517	0.004105221
225	0x3df9a0f6	0.12188904
226	0x3cea4733	0.028598404
227	0x3baf82cb	0.005356168
228	0xbd8aecb0	-0.06783426
229	0xbd4cdb64	-0.050013915
230	0x3d2b5186	0.041825794
231	0x3cac4062	0.021026794
232	0xbd18c48c	-0.037296817
233	0x3c53f8f8	0.012937777
234	0xbbd79819	-0.0065794108
235	0x3db73b10	0.08946812
236	0xbd366607	-0.044530895
237	0xbd23ce74	-0.03999181
238	0xbcc6b7fc	-0.024257652
239	0xbc9b89f7	-0.018986685
240	0x3d79aa32	0.060953327
241	0x3d2f2374	0.04275842
242	0x3d6c2e0b	0.057661097
243	0x3d667093	0.056259703
244	0x3c4f107a	0.012638206
245	0xbc82c04f	-0.01596084
246	0x3a6dddf5	0.00090739067
247	0x3d62ba7f	0.055353638
248	0x3d1bdd35	0.038052756
249	0x3dac52d7	0.08414238
250	0xbd0da058	-0.034576744
251	0x3da23dc1	0.07921935
252	0x3be8ce05	0.0071046376
253	0x3d3c0562	0.04590357
254	0x3df34fe1	0.1188047
255	0xbd77a974	-0.060464337

bias f4 [256]
0	0x3c82ebe5	0.015981624
1	0x3d1f307e	0.038864605
2	0xbd379761	-0.0448221
3	0x3c94a883	0.018146759
4	0x3cfb8e97	0.03070764
5	0x3c908657	0.017642183
6	0xbcd43b33	-0.025907135
7	0xbcda3ae4	-0.02663941
8	0x3d5a932b	0.053363007
9	0x3c9b5157	0.018959684
10	0x392cb52e	0.00016470693
11	0x3d8265e2	0.06367089
12	0xbd355591	-0.044271056
13	0xbc997b6a	-0.018735606
14	0x3d125b3f	0.03573155
15	0xbcd1c1c8	-0.025605097
16	0x3d7e7679	0.062124703
17	0x3d6bbbf2	0.057552285
18	0x3da28244	0.079350024
19	0x3bc4b2ef	0.006002776
20	0x3d216320	0.039401174
21	0x3c2fdbf5	0.010733594
22	0x3d2fbefa	0.04290674
23	0x3d5a2437	0.053257193
24	0xbd180de1	-0.03712261
25	0xbc7390bb	-0.014866049
26	0xbd0d86c2	-0.034552343
27	0xbc8e81e4	-0.017395921
28	0x3d73d6ba	0.05953095
29	0x3ceaf4f3	0.028681254
30	0xbcfc624a	-0.030808587
31	0x3b95a99b	0.0045673377
32	0xbc82ee53	-0.015982782
33	0x3ccc8abc	0.024968497
34	0x3cbdbaef	0.023160426
35	0x3d69c196	0.057069384
36	0x3dabd0a6	0.08389406
37	0x3c131a2f	0.008978411
38	0xbd5f5f68	-0.054534346
39	0x3d4a3b34	0.049372867
40	0x3ba0d46c	0.004908135
41	0x3d45ccc4	0.048290983
42	0x3d778f17	0.060439195
43	0xbc9aac1a	-0.018880893
44	0x3dac2fa9	0.08407528
45	0x3cf14e3d	0.029456252
46	0x3d2713c3	0.04079033
47	0x3cc3de9f	0.023909865
48	0x3d88c988	0.06679064
49	0xbc313cae	-0.01081769
50	0xbca21e35	-0.019789794
51	0x3c25d816	0.01012232
52	0x3cd44b7f	0.025914906
53	0x3be78464	0.0070653427
54	0xbd87cdb4	-0.06631032
55	0xbc79f742	-0.015256705
56	0x3cc15064	0.023597904
57	0xbc804149	-0.01565613
58	0x3d22cd28	0.039746433
59	0xbd7e0d79	-0.062024567
60	0x3d7a4f65	0.061110873
61	0x3ccdef17	0.025138421
62	0x3c7496b9	0.014928513
63	0x3c855b2b	0.016278824
64	0xbd471e41	-0.048612837
65	0x3d668a01	0.056283955
66	0xbc4ad051	-0.012378768
67	0x3d5f33e1	0.054492835
68	0x3d40f054	0.047104195
69	0x3d5b3e47	0.05352619
70	0x3d0b705e	0.03404271
71	0x3cb12dda	0.021628309
72	0x3d949333	0.072546385
73	0x3ce8b09c	0.028404526
74	0x3d76a185	0.06021263
75	0xbd7bd993	-0.06148679
76	0x3d833f77	0.06408589
77	0x3d55cc8d	0.052197028
78	0xbd4c980b	-0.049949687
79	0x3d96e34e	0.07367574
80	0xbd265215	-0.040605623
81	0xbd27ed91	-0.040998045
82	0x3da8fc75	0.08251277
83	0x3dc0e194	0.094180256
84	0x3d785f79	0.060637925
85	0x3d41d21a	0.04731951
86	0x3d6c9fcd	0.057769585
87	0x3c80171f	0.015636025
88	0x3cf4cfb1	0.029884191
89	0x3d82be82	0.06383993
90	0xbc2ecd81	-0.010669113
91	0xbcfc2768	-0.03078051
92	0x3c436273	0.011925328
93	0x3d28d8e3	0.041222464
94	0x3c6cab7d	0.014445183
95	0xbd0d199e	-0.03444826
96	0x3cc48d33	0.02399311
97	0x3d106012	0.03524787
98	0x3d4c4388	0.04986909
99	0xbc3f3027	-0.011669195
100	0x3c8967a9	0.016773062
101	0xbd3b9853	-0.045799565
102	0xbbef675c	-0.0073060226
103	0x3d0c96b1	0.034323398
104	0x3da82f27	0.082121186
105	0x3d1f3b69	0.038875017
106	0xbccd637a	-0.025071848
107	0x3cfcb026	0.030845713
108	0x3d3708a5	0.04468598
109	0xbcb36088	-0.021896616
110	0xbced16ad	-0.028941477
111	0xbc5bcd51	-0.01341565
112	0x3d5c5ed5	0.053801376
113	0x3cdd30c2	0.027000789
114	0x3d5cc4af	0.05389851
115	0x3d14409e	0.036194436
116	0xbd60374c	-0.054740235
117	0xbb73e56e	-0.0037215608
118	0xbc2ada3b	-0.010428007
119	0x3cd9cd58	0.026587173
120	0x3d81b08a	0.063325
121	0x3d193263	0.03740157
122	0x3d913d40	0.07091761
123	0x3d3a6385	0.045505065
124	0xbcb5b1cd	-0.022179509
125	0x3d7c8af6	0.06165596
126	0x3d52f992	0.05150754
127	0x3d385043	0.04499842
128	0x3da4b3f4	0.08042136
129	0x3ce1b748	0.027553216
130	0x3dc9380a	0.09825142
131	0xbbb3d5cc	-0.005488133
132	0x3c325804	0.010885242
133	0xbd75054e	-0.059819512
134	0x3c6a8a4e	0.014315201
135	0x3d3cffee	0.04614251
136	0xbd441739	-0.04787371
137	0x3d9464b7	0.07245772
138	0x3d09a2c5	0.033602495
139	0x3d0381bc	0.032106146
140	0x3d0f3d64	0.034970656
141	0x3ca6b1f6	0.02034853
142	0xba92e030	-0.0011205729
143	0x3d95f545	0.07322172
144	0x3c9f14fc	0.019419186
145	0x3dc03b89	0.093863554
146	0x3c09898e	0.008394612
147	0x3ccfd823	0.025371617
148	0x3d81ee41	0.063442715
149	0x3d29efaf	0.041488346
150	0xbd7edd73	-0.06222291
151	0xbcca64b3	-0.02470622
152	0x3d25c282	0.0404687
153	0xbc10db6f	-0.00884138
154	0x3c2b8ac1	0.010470093
155	0x3da9c409	0.08289344
156	0x3d3b4fc9	0.045730386
157	0x3b263684	0.0025362084
158	0x3ce0943e	0.027414437
159	0xbc710217	-0.014709971
160	0x3d812737	0.06306308
161	0x3c82e7ce	0.015979674
162	0x3d616bb0	0.05503434
163	0x3ca1eaf5	0.019765357
164	0x39d03b4d	0.00039717034
165	0xbd2f86f1	-0.0428533
166	0x3d169361	0.036761645
167	0xbcda47fd	-0.026645655
168	0xbd0459eb	-0.032312315
169	0x3ce113d7	0.02747528
170	0x3c359e34	0.011085082
171	0x3cececca	0.028921504
172	0x3c6b7378	0.014370792
173	0x3d742fc2	0.059615858
174	0x3bcfed84	0.0063454527
175	0x3d94fd5e	0.072748885
176	0x3d28a6f3	0.04117484
177	0x3d822bfb	0.06356045
178	0x3d560e8f	0.052259978
179	0xbd02a100	-0.031891823
180	0x3d5fb8cd	0.0546196
181	0xbc9df047	-0.019279612
182	0x3d9c8dfa	0.076442674
183	0x3d8e98d2	0.06962742
184	0x3d959411	0.07303632
185	0x3ca598f7	0.02021454
186	0x3dcdbe56	0.10046069
187	0x3cee6a5a	0.029103447
188	0x3be5cd18	0.0070129745
189	0x3d870a04	0.06593707
190	0x3d73ba79	0.059504006
191	0x3da507ab	0.08058103
192	0x3d49759a	0.04918442
193	0x3d49e99d	0.049295057
194	0x3c7f1fab	0.015571515
195	0x3c7cb0e6	0.015423035
196	0x3d38f842	0.045158632
197	0xbd18213e	-0.037141077
198	0x3d4747ea	0.048652567
199	0x3be01964	0.0068389643
200	0xbcf95158	-0.030434296
201	0x3d4d6336	0.050143443
202	0x3d316672	0.04331059
203	0x3d7863f2	0.06064219
204	0x3d4fc028	0.050720364
205	0x3cbddbe6	0.023176145
206	0x3da5d364	0.0809696
207	0x3bbeacd7	0.005818944
208	0xbcc1d3da	-0.023660589
209	0x3d8ddce4	0.06926897
210	0x3d29bf3e	0.04144215
211	0x3c7f6688	0.01558841
212	0x3c5f76ad	0.013639134
213	0x3a366610	0.00069579575
214	0x39913f74	0.0002770383
215	0xbc8ef46f	-0.01745054
216	0x3db80b0f	0.08986484
217	0x3d6da47e	0.0580182
218	0x3d49b3d1	0.049243752
219	0xbd0cb803	-0.034355175
220	0xbcd3d968	-0.025860503
221	0xbd01e09b	-0.03170834
222	0x3d3ba2f4	0.0458097
223	0x3d85bf13	0.06530585
224	0x3cf8bb02	0.03036261
225	0x3d450772	0.048102804
226	0x3cc31b7f	0.023816822
227	0xbc3418c2	-0.010992231
228	0x3cf44a87	0.029820694
229	0x3d6d8b0f	0.057993945
230	0x3d763251	0.06010658
231	0x3d658bd5	0.056041557
232	0x3d81378c	0.06309423
233	0xbc5e0e87	-0.013553268
234	0x3ce9f738	0.028560266
235	0x3d296d14	0.04136379
236	0xbd4ef1ed	-0.050523687
237	0x3aea4a00	0.0017874837
238	0x3d8ae517	0.06781977
239	0x3d6fd903	0.058556568
240	0x3ad3fcd0	0.0016173366
241	0x3d636d1f	0.055523988
242	0x3c74995d	0.014929143
243	0xbd402f46	-0.046920083
244	0x3d6a0d02	0.05714131
245	0xbd5ce266	-0.053926848
246	0xbbfc9063	-0.007707642
247	0x3c91fcd9	0.017820762
248	0x3bb05c0a	0.0053820657
249	0x3d6a4e30	0.05720347
250	0xbd45c0b5	-0.048279483
251	0x3997d42f	0.00028959053
252	0xbca200fd	-0.019775862
253	0x3d1fce20	0.039014935
254	0x3d319cc2	0.043362387
255	0x3d1861a3	0.03720249

weight f4 [1, 256]
0	0xbdf7bc18	-0.12096423
1	0x3e36e82e	0.17862007
2	0xbde8afe0	-0.113616705
3	0xbdee3b81	-0.11632443
4	0xbde76745	-0.11298994
5	0xbd2c3074	-0.042038396
6	0xbdab0ef4	-0.083524615
7	0xbdeba21b	-0.115055285
8	0x3e4cbb4d	0.19993325
9	0xbdcf9743	-0.10136273
10	0x3e47f2c5	0.19526203
11	0x3e0571f1	0.13031746
12	0xbe127c87	-0.14305316
13	0xbe19fe3c	-0.15038389
14	0xbdbe68d5	-0.09297339
15	0xbd943872	-0.072373286
16	0xbdc7fc52	-0.09764923
17	0x3e444fa7	0.1917101
18	0x3e4e62b7	0.20154844
19	0xbdd3bdc1	-0.10338927
20	0x3e28f06a	0.1649796
21	0xbd8c9ae3	-0.0686548
22	0x3e14eb30	0.14542842
23	0xbd97527d	-0.0738878
24	0xbdee1136	-0.116243765
25	0x3d1b942a	0.037983097
26	0xbdfa0868	-0.122086346
27	0xbdd8790f	-0.10569965
28	0xbdac2a67	-0.08406525
29	0xbdc52dba	-0.09627862
30	0xbdc90c2c	-0.09816775
31	0x3e1df07f	0.15423773
32	0xbde53c4c	-0.11193141
33	0xbd95ca3b	-0.07313963
34	0x3e182cfe	0.14860913
35	0xbd97d802	-0.07414247
36	0x3e2a4a0c	0.16629809
37	0x3e392ec2	0.18084243
38	0x3af53c9f	0.0018710083
39	0xbdd1a98b	-0.10237416
40	0xbda33d22	-0.079706445
41	0x3e0eb1b1	0.13934971
42	0xbdcd999a	-0.10039063
43	0xbdf16718	-0.11787242
44	0x3e25fee9	0.16210522
45	0xbdb1a059	-0.08673162
46	0x3e6500b6	0.22363552
47	0x3e2b74e4	0.16743809
48	0x3e66fa6f	0.2255647
49	0x3ddcac82	0.10775091
50	0xbe06cecd	-0.13164826
51	0x3e265a21	0.16245319
52	0xbdbec53b	-0.093149625
53	0x3e034e76	0.12822899
54	0x3b7cd7a8	0.003858069
55	0x3e16e5ba	0.14736071
56	0x3e278b4d	0.16361733
57	0xbddd8fab	-0.10818418
58	0x3e404fbd	0.18780418
59	0x3c2bed00	0.010493517
60	0x3e217a45	0.15769298
61	0x3e35ffb2	0.17773321
62	0x3e287821	0.16452076
63	0x3e1e4f1c	0.15459865
64	0xbd9c8a93	-0.076436184
65	0x3e064313	0.13111524
66	0x3e18c3a2	0.14918378
67	0xbdecdd2d	-0.115656234
68	0xbddf226e	-0.10895239
69	0xbe034867	-0.12820588
70	0x3e49655f	0.19667576
71	0xbde7f690	-0.11326325
72	0x3e0dd811	0.13851954
73	0xbdb37f11	-0.0876447
74	0xbda9cc64	-0.082909375
75	0xbdbf83c8	-0.09351307
76	0x3e460170	0.19336486
77	0xbde48b39	-0.11159367
78	0xbdc97386	-0.098364875
79	0x3e0c281d	0.13687177
80	0xbe072b28	-0.13200057
81	0xbdd7c9fd	-0.10536573
82	0x3e00c31d	0.1257443
83	0x3de25070	0.110504985
84	0xbdd08ff8	-0.1018371
85	0x3e116a3d	0.14200683
86	0xbde963bc	-0.11395976
87	0xbda162de	-0.078801855
88	0x3e3528e3	0.17691378
89	0x3e336f00	0.17522812
90	0xbe073bbe	-0.13206384
91	0xbdee7f7c	-0.116454095
92	0xbdde6503	-0.1085911
93	0x3de0c81c	0.10975668
94	0xbdac271e	-0.084058985
95	0xbe0568df	-0.13028286
96	0x3e383f2f	0.17992853
97	0xbde549cc	-0.11195716
98	0x3e48ec8e	0.19621488
99	0x3e0f2013	0.13977079
100	0x3e32c918	0.17459524
101	0xbe0bac72	-0.13640001
102	0xbe04ad02	-0.12956622
103	0x3ded1c37	0.11577647
104	0x3dedf1bf	0.11618375
105	0xbdcae804	-0.09907535
106	0x3e2ed6f9	0.17074193
107	0x3e1e18dc	0.1543917
108	0xbdb0b430	-0.08628118
109	0xbdda2149	-0.1065088
110	0xbe01b963	-0.12668376
111	0xbe0359b0	-0.12827182
112	0x3e0bbbc5	0.13645847
113	0xbd988e2c	-0.07448992
114	0xbda9fe2c	-0.083004326
115	0xbde218f6	-0.11039917
116	0xbcbf9a70	-0.023389071
117	0xbddd2dad	-0.107997276
118	0x3e3ab958	0.18234766
119	0x3e533a47	0.206277
120	0x3e1137c0	0.14181423
121	0x3e33f9ad	0.17575713
122	0x3ddd7fda	0.108154014
123	0xbdb0e535	-0.08637468
124	0xbdf27687	-0.118390135
125	0xbdab5155	-0.08365122
126	0x3e261f95	0.16222985
127	0xbddfedbc	-0.10934016
128	0x3df6c85c	0.12049934
129	0x3e350f0d	0.17681523
130	0x3e4944b0	0.19655108
131	0xbdf5c338	-0.12000126
132	0x3e315520	0.17317629
133	0x3acb03c3	0.0015488792
134	0x3e0a31fc	0.1349563
135	0xbdae1af7	-0.08501237
136	0xbdd83616	-0.10557191
137	0x3e0cb17d	0.13739581
138	0xbdcf8218	-0.10132235
139	0x3e67e1d8	0.22644746
140	0x3e4b15c1	0.19832517
141	0xbd7e4ad6	-0.062083088
142	0xbdb28fc3	-0.087188266
143	0x3e258693	0.16164617
144	0x3e2cd33b	0.16877453
145	0x3e4e3810	0.20138574
146	0xbdc79bfa	-0.09746547
147	0x3e1d92b8	0.15388
148	0x3e6c6866	0.230867
149	0xbdb0aa79	-0.08626265
150	0xbdaa44ce	-0.08313905
151	0xbdcaf614	-0.09910217
152	0xbdf23d84	-0.118281394
153	0xbdde65ca	-0.108592585
154	0x3e5131f4	0.20429212
155	0x3e15590a	0.14584747
156	0x3e35ff46	0.1777316
157	0xbdaea946	-0.0852838
158	0x3e43ae29	0.19109406
159	0xbde8def2	-0.113706484
160	0x3e2309f8	0.15921772
161	0x3e1a1b27	0.1504942
162	0xbde56587	-0.112010054
163	0xbdd3f89a	-0.10350151
164	0x3e24f893	0.16110449
165	0xbe009ba1	-0.12559368
166	0xbdbede8b	-0.093197905
167	0xbddd04aa	-0.10791905
168	0xbde846bc	-0.113416165
169	0x3e09cef9	0.1345786
170	0xbe010448	-0.1259929
171	0x3e3a09fb	0.1816787
172	0x3e17c2d6	0.14820418
173	0x3e29a88c	0.16568202
174	0x3e16cc09	0.1472627
175	0x3e11a20c	0.14221972
176	0x3e31bef0	0.17357993
177	0x3e3471af	0.17621492
178	0x3e1c1705	0.15243156
179	0xbdccb407	-0.09995275
180	0xbdc37245	-0.095432796
181	0x3e20dd56	0.15709433
182	0x3e25e94a	0.16202274
183	0x3e0c8e0d	0.13726063
184	0x3df5a3b1	0.11994112
185	0xbdf35af6	-0.11882584
186	0x3e1fa3fa	0.15589896
187	0xbdf787dc	-0.1208646
188	0x3e041a73	0.12900715
189	0xbdd4824a	-0.10376413
190	0xbe05ad44	-0.13054377
191	0x3e182714	0.14858657
192	0xbd9dbaa2	-0.07701613
193	0xbd9dee0e	-0.07711421
194	0x3e2ebd20	0.17064333
195	0xbe0ccf1d	-0.13750882
196	0x3e2b2ff2	0.16717508
197	0xbdf910a4	-0.12161377
198	0xbd98490d	-0.07435808
199	0xbe0f57c5	-0.13998325
200	0xbe0ac67a	-0.13552275
201	0xbdc267a3	-0.094924234
202	0x3e795210	0.2434771
203	0xbdb895f8	-0.09012979
204	0x3e182e9e	0.14861533
205	0x3dff974e	0.12480031
206	0x3e18e584	0.14931303
207	0xbdacdaa9	-0.084401436
208	0xbe069292	-0.1314185
209	0xbdcc7fe0	-0.09985328
210	0x3e4edc54	0.20201236
211	0x3e4d4436	0.20045552
212	0xbe11770e	-0.14205572
213	0x3e0cca5c	0.13749069
214	0x3e3f0e4b	0.18657796
215	0xbd9d4d58	-0.07680768
216	0x3de1750f	0.11008655
217	0x3e35dcd4	0.1776002
218	0x3e0de723	0.13857703
219	0xbdbd35bb	-0.09238764
220	0xbdbc9aa9	-0.092091866
221	0xbda4a0ff	-0.0803852
222	0x3e10a570	0.1412561
223	0x3e25d9d3	0.16196375
224	0xbdae4096	-0.085084125
225	0xbdeb8e7f	-0.11501788
226	0x3e562513	0.2091258
227	0xbddcd5da	-0.107829764
228	0xbdb461ad	-0.08807693
229	0x3e0a74a4	0.13521057
230	0x3e221ea0	0.15831995
231	0xbde19614	-0.11014953
232	0x3e407b06	0.1879693
233	0xbd967acf	-0.07347643
234	0xbda278bf	-0.07933187
235	0x3e37db32	0.1795471
236	0xbe0816f3	-0.13290004
237	0xbd8d45a4	-0.068980485
238	0x3e055107	0.1301919
239	0x3e431d6d	0.19054194
240	0x3d55b9f0	0.052179277
241	0xbde7c26d	-0.11316381
242	0xbdd5bfdf	-0.10436987
243	0xbdc80233	-0.097660445
244	0x3e27d6f6	0.16390595
245	0x3ced6c1c	0.028982215
246	0x3e1b1de4	0.15148121
247	0xbd910f00	-0.07082939
248	0xbdebb916	-0.11509912
249	0x3e33c416	0.1755527
250	0xbe085d15	-0.13316758
251	0xbe05a932	-0.13052824
252	0xbdc1c689	-0.09461696
253	0x3e0f68ef	0.14004873
254	0xbdeb1fa4	-0.11480644
255	0xbdae7d00	-0.085199356
