Anul III/Semestrul I/CAVA/proiecte/flinstones-facial-detection-recognition/models/best_task2.pth (torch, 520210 bytes, 12 tensors)

weight f4 [16, 3, 3, 3]
0.25208548 0.15671998 0.14685026 0.07387185 -0.0055381213 -0.01127483 -0.1601118 -0.112604715
0.13961121 0.19947992 0.14304924 0.080869295 0.04445065 0.11969017 -0.12605494 -0.12141267
0.015832992 0.015116865 -0.11894475 0.15193138 -2.8728897e-05 -0.1745414 0.16592447 -0.21159852
-0.08757675 0.088120505 0.042884093 0.015101773 -0.066239536 0.03228317 0.24023262 0.10115253
0.24301898 0.17058219 0.061535217 0.098328546 0.15544821 0.058119822 0.046053745 0.14398591
0.042394362 0.020866483 -0.078118496 0.13596013 0.19455871 0.19803491 0.22707225 0.062763005
0.06638359 0.014238173 0.028733676 0.046277054 0.12234905 -0.09847696 -0.068454154 0.21858862
0.084994994 -0.08655697 -0.194947 0.17012376 0.003524643 -0.19079824 -0.06774976 -0.06975119
0.24335873 0.115471 0.15768129 0.05756728 0.027320405 0.1897348 0.016502496 -0.11876558
0.07620363 0.20111455 0.14906205 -0.13304943 -0.10502536 0.05633817 0.014570179 -0.24861684
0.079805695 -0.120260544 0.01762813 -0.18557046 -0.21762387 -0.115635395 0.1428695 -0.15532656
-0.04555444 0.14304401 0.05036604 0.22255903 0.22555332 -0.0042097266 -0.12393893 0.21320476
-0.04699595 0.22506577 -0.085475504 0.038673304 -0.093658276 -0.13447943 -0.14303154 0.1780386
0.22988582 -0.037190154 0.22410773 0.0741445 0.112037025 0.16097225 -0.09681512 -0.18004856
0.06297389 -0.15051353 -0.008674139 -0.18882051 -0.20178562 0.032717474 0.17046437 -0.11811147
-0.06046684 0.26078624 0.19563194 -0.07951689 -0.060982615 0.025285332 -0.1138065 0.009025064
0.028420886 0.15132141 0.08465509 0.099833414 -0.10724977 0.103115804 -0.15010335 -0.10854249
0.032113504 0.046470616 0.14654875 -0.16553997 -0.17227805 -0.048716713 -0.0018748665 0.1807256
-0.124435276 0.09478818 0.1423169 -0.12455587 -0.044502415 -0.08698059 -0.029595843 -0.013100445
-0.13155703 -0.050349973 0.2815169 0.06309121 0.08606416 0.064635426 0.011449001 0.13432612
0.14868413 0.1781556 0.16838169 0.049228728 -0.17247872 -0.1581766 0.13086787 -0.12681706
0.03362856 -0.15551688 0.090362646 -0.09718284 -0.13638481 0.06439885 -0.009993311 0.02140421
0.054287203 0.08129259 -0.011839173 -0.022697363 0.25051793 0.24385592 0.18998604 0.23239467
-0.09675327 -0.031061055 0.27150872 -0.12458847 -0.032981854 -0.11308542 -0.07105054 -0.032772634
-0.08844582 0.038391206 -0.11200282 0.14846212 -0.030058712 -0.15045996 0.06990507 -0.13073733
-0.090910755 0.20859553 0.039450146 0.16866677 0.12091444 0.020729074 -0.0036961401 0.09450736
-0.067670785 -0.06263717 0.15135054 0.15964523 -0.08718445 0.117541455 0.1267753 -0.08015745
-0.14697368 0.041357324 0.045248523 0.15944707 0.12500522 0.14837645 0.056269128 -0.028197313
-0.029054286 -0.20590168 -0.17064308 -0.11022979 0.27265924 0.23378314 0.10739271 -0.12435364
0.01799288 0.0772721 -0.23197097 -0.081546925 -0.17003573 -0.13707289 -0.12269109 0.033987988
-0.14453866 -0.079442635 0.0260408 0.054864604 -0.07219341 0.037613228 -0.087094784 -0.1471201
0.037902016 -0.06043356 0.06067789 0.19763754 0.124715894 0.23914574 -0.084129795 0.12471123
00000000: 5911 813e 347b 203e ea5f 163e 204a 973d
00000010: 2179 b5bb 11ba 38bc 59f4 23be 4d9d e6bd
00000020: 3ef6 0e3e 7744 4c3e 807b 123e cd9e a53d
00000030: e311 363d 1f20 f53d 8c14 01be 35a7 f8bd
00000040: 31b4 813c baac 773c 4e99 f3bd e693 1b3e
00000050: d6fe f0b7 fbba 32be 1be8 293e 48ad 58be
00000060: 705b b3bd 8678 b43d 3ba7 2f3d 6d6d 773c
00000070: 98a8 87bd 5b3b 043d 8aff 753e 0f29 cf3d
00000080: f8d9 783e 19ad 2e3e 5a0c 7c3d 7a60 c93d
00000090: d12d 1f3e 0d0f 6e3d daa2 3c3d 0b71 133e
000000a0: b6a5 2d3d 30f0 aa3c 97fc 9fbd 2239 0b3e
000000b0: 663a 473e aac9 4a3e a185 683e e489 803d
000000c0: 1ff4 873d 3a47 693c e362 eb3c 028d 3d3d
000000d0: 2492 fa3d 4aae c9bd b131 8cbd b2d5 5f3e
000000e0: db11 ae3d c844 b1bd 30a0 47be ec34 2e3e
000000f0: b2fd 663b 9d60 43be 63c0 8abd b6d9 8ebd
00000100: 0833 793e 0f7c ec3d 3477 213e abcb 6b3d
00000110: 0bcf df3c d749 423e 3e30 873c 5e3b f3bd
00000120: a610 9c3d f9f0 4d3e b9a3 183e 1c3e 08be
00000130: 8917 d7bd dac2 663d c3b7 6e3c 6a95 7ebe
00000140: 2b71 a33d 294b f6bd de68 903c 2f06 3ebe
00000150: cbd8 5ebe 40d2 ecbd 624c 123e ed0d 1fbe
00000160: 4b97 3abd 217a 123e 9f4c 4e3d 84e6 633e
00000170: 73f7 663e bff1 89bb b2d3 fdbd 5952 5a3e
00000180: d37e 40bd a477 663e c80d afbd e667 1e3d
00000190: e9cf bfbd fab4 09be dc76 12be c04f 363e
000001a0: 3067 6b3e b454 18bd 7f7c 653e 12d9 973d
000001b0: ab73 e53d e9d5 243e 0147 c6bd a65e 38be
000001c0: 74f8 803d 3820 1abe fa1d 0ebc 2a5a 41be
000001d0: e4a0 4ebe c202 063d 368e 2e3e 6de4 f1bd
000001e0: 14ac 77bd c685 853e bd53 483e c0d9 a2bd
000001f0: e8c8 79bd 2f23 cf3c 6213 e9bd dddd 133c
00000200: ebd2 e83c 00f4 1a3e a65f ad3d 7675 cc3d
00000210: c4a5 dbbd 612e d33d b1b4 19be 864b debd
00000220: 7389 033d f957 3e3d e010 163e 4f83 29be
00000230: a869 30be 2d8b 47bd 15be f5ba 2210 393e
00000240: ecd7 febd 4e20 c23d 85bb 113e 2617 ffbd
00000250: 2a48 36bd e122 b2bd fb72 f2bc 40a3 56bc
00000260: e3b6 06be c63b 4ebd fc22 903e f735 813d
00000270: 6842 b03d 945f 843d 9794 3b3c c98c 093e
00000280: a740 183e 6c6e 363e 406c 2c3e 10a4 493d
00000290: 439e 30be 0cf9 21be 3a02 063e 55dc 01be
000002a0: 1abe 093d d13f 1fbe 0d10 b93d cc07 c7bd
000002b0: 76a8 0bbe 8be3 833d fcba 23bc e257 af3c
000002c0: 425c 5e3d bb7c a63d 17f9 41bc d2ef b9bc
000002d0: e343 803e 5eb5 793e b38b 423e def8 6d3e
000002e0: 9426 c6bd c173 febc 3103 8b3e 3d28 ffbd
000002f0: fb17 07bd 5499 e7bd f282 91bd 993c 06bd
00000300: 1523 b5bd 1940 1d3d bc61 e5bd 7406 183e
00000310: b03d f6bc 2d12 1abe 642a 8f3d 02e0 05be
00000320: 6b2f babd 119a 553e 7a96 213d fbb6 2c3e
00000330: fda1 f73d 05d0 a93c f13a 72bb 138d c13d
00000340: fb96 8abd eb47 80bd a3fb 1a3e 0a7a 233e
00000350: c38d b2bd 93b9 f03d 62d1 013e 9729 a4bd
00000360: 4580 16be 4c66 293d 8456 393d 1846 233e
00000370: 5e01 003e ffef 173e 757a 663d 0dfe e6bc
00000380: 4103 eebc e4d7 52be 0fbd 2ebe 28c0 e1bd
00000390: fe99 8b3e d964 6f3e b6f0 db3d 1fad febd
000003a0: ce65 933c d640 9e3d cc89 6dbe 1302 a7bd
000003b0: d91d 2ebe d65c 0cbe 7745 fbbd fd36 0b3d
000003c0: f101 14be d2b2 a2bd 8453 d53c b5b9 603d
000003d0: 23da 93bd 5410 1a3d c05e b2bd a7a6 16be
000003e0: 253f 1b3d 2e89 77bd 6189 783d 7f61 4a3e
000003f0: 0c6b ff3d 9fe2 743e 3e4c acbd 9a68 ff3d

bias f4 [16]
0.03303197 -0.048471782 0.005286352 0.099870965 0.106732026 0.08201364 -0.0005568838 -0.19052924
0.09769861 0.08857203 0.20289779 0.080480136 -0.05064615 0.24720642 -0.008781011 0.005694572
00000000: 884c 073d 598a 46bd 2239 ad3b 2689 cc3d
00000010: 5296 da3d c4f6 a73d d7fb 11ba 191a 43be
00000020: 3516 c83d 4165 b53d 70c4 4f3e c5d2 a43d
00000030: 5672 4fbd ae23 7d3e 3bde 0fbc 8899 ba3b

weight f4 [32, 16, 3, 3]
0.104989775 0.14802757 0.13588685 0.10123846 0.0048139696 0.053600464 0.07500922 0.022614364
0.02412217 0.06694332 0.054577854 0.034907177 -0.035542186 -0.0010588256 0.0009880915 -0.08841386
-0.10926148 -0.08122227 0.047750868 0.07976117 0.079251826 0.11742212 0.0041279458 0.042174082
0.006729938 -0.07964646 0.08436908 0.010209164 -0.03455978 -0.01050284 0.10784869 0.015461635
0.03966239 -0.07543503 -0.003608992 0.015643666 0.110062495 0.10815215 0.1320173 0.187862
0.16947792 0.12755094 -0.019462947 0.017557811 0.023632152 -0.07691074 -0.049880676 0.059581466
0.047190562 -0.00020349122 0.008777596 0.039500654 0.09565862 0.11501302 0.038699906 0.05893766
0.075992346 -0.09593011 0.0045346864 -0.0077674575 -0.011872096 -0.106861 -0.028801909 -0.32053778
-0.25844252 -0.25814292 -0.11056342 -0.15520588 -0.17610906 -0.15858668 -0.061923146 -0.16375634
0.052117918 0.1714038 0.11857755 0.02968219 0.060691956 0.11002406 0.11756447 0.114249885
0.17382437 0.12307419 -0.017643927 0.074806005 -0.012449064 0.11112151 -0.0015329922 -0.055024162
-0.03424163 0.026449684 -0.02420854 -0.04658713 -0.03193035 0.06561717 -0.018433439 0.12441305
0.0013755147 0.085403964 0.13262102 0.103378154 0.017617019 0.11052323 0.013711122 -0.03841446
0.047733266 -0.04139838 -0.050726693 -1.1360781e-05 0.077914245 0.045402978 0.01385923 -0.020408753
0.08714044 -0.044147234 0.059518006 -0.030869376 0.030341579 0.07462268 0.14418219 0.089345366
0.16288352 0.26308346 0.14249632 0.042299617 0.1654266 0.18026358 0.023334432 0.096714914
-0.029089518 -0.050891347 0.067644924 0.0049779 -0.07827201 -0.075583085 0.007611276 -0.022270713
0.063183546 0.11552024 0.0341633 -0.018403525 0.050735213 -0.10192652 -0.028802512 0.03296801
-0.07280307 -0.08377485 0.036003694 -0.116083205 -0.030007413 0.04110291 -0.0021739672 0.06947669
0.022904541 -0.12613465 -0.0594164 -0.02326819 -0.038811613 -0.044736784 -0.011543652 0.035963617
0.064071395 0.03584093 -0.11587705 0.024460854 0.04157986 -0.11355823 0.052482154 0.027517408
-0.006190232 -0.0047048694 -0.007850086 0.09600291 0.01984897 -0.0003773773 0.07022072 0.1732495
0.058133695 -0.0053200587 0.13288051 -0.008037455 0.094582476 0.05870247 0.14362532 0.006075459
0.08449757 -0.012963168 0.10052527 0.06318951 0.059284296 -0.087593906 -0.028781766 -0.02319659
-0.021270778 0.03284309 0.024874937 -0.014842945 0.16835108 0.05843845 -0.058601305 0.033466037
0.03147952 0.033624727 0.106208146 0.052615337 -0.009641601 0.019891422 0.05760263 0.001401924
-0.0060433405 0.097513296 0.13495201 0.16836354 0.18510373 0.15551697 0.11593051 0.073192485
-0.15266736 -0.10718468 -0.17645904 -0.015637904 -0.08751472 -0.06969799 -0.052388884 0.09763489
-0.10014527 -0.06346125 0.07173668 0.0022744231 0.100039706 0.06141271 0.024774898 0.04960012
-0.016600171 0.12229895 -0.016534368 -0.01892311 0.07041975 0.027876839 0.07020462 0.02855162
0.0038452465 0.0443368 -0.025204314 -0.019067943 0.072784476 0.17455108 0.06496938 0.117675856
0.031293985 -0.039840497 0.050661713 0.09092059 -0.081684686 -0.16104062 -0.0981578 0.034254786
00000000: e104 d73d 8a94 173e ec25 0b3e 1c56 cf3d
00000010: 81be 9d3b 298c 5b3d 6f9e 993d c241 b93c
00000020: db9b c53c 9419 893d 078d 5f3d d4fa 0e3d
00000030: af94 11bd 4bc8 8aba d982 813a 5312 b5bd
00000040: 7cc4 dfbd dd57 a6bd 6a96 433d d359 a33d
00000050: c84e a23d 027b f03d b843 873b bbbe 2c3d
00000060: d086 dc3b af1d a3bd b2c9 ac3d 5644 273c
00000070: 8e8e 0dbd 1b14 2cbc c6df dc3d cc52 7d3c
00000080: 0875 223d ae7d 9abd d784 6cbb 2527 803c
00000090: 7268 e13d e07e dd3d 8b2f 073e e55e 403e
000000a0: 9f8b 2d3e b79c 023e c270 9fbc 66d5 8f3c
000000b0: 3798 c13c 6183 9dbd ae4f 4cbd b20b 743d
000000c0: e44a 413d 4260 55b9 e8cf 0f3c 70cb 213d
000000d0: abe8 c33d f28b eb3d cb83 1e3d 9e68 713d
000000e0: e0a1 9b3d 0177 c4bd b597 943b 2886 febb
000000f0: 2e83 42bc f1d9 dabd fbf1 ebbc 871d a4be
00000100: 9452 84be 4f2b 84be 136f e2bd 4aee 1ebe
00000110: ef55 34be 8c64 22be 20a3 7dbd beaf 27be
00000120: 9979 553d 7a84 2f3e c9d8 f23d 1028 f33c
00000130: 2198 783d 4b54 e13d a4c5 f03d d8fb e93d
00000140: 04ff 313e 520e fc3d ff89 90bc e433 993d
00000150: 29f7 4bbc ad93 e33d afee c8ba 0461 61bd
00000160: f440 0cbd 02ad d83c fd50 c6bc 25d2 3ebd
00000170: 66c9 02bd 4b62 863d b901 97bc 45cc fe3d
00000180: 9d4a b43a 46e8 ae3d cecd 073e edb7 d33d
00000190: 9151 903c 015a e23d 9da4 603c 7b58 1dbd
000001a0: f583 433d 5991 29bd cbc6 4fbd 2f9a 3eb7
000001b0: 8191 9f3d 79f8 393d d311 633c 4230 a7bc
000001c0: b076 b23d bbd3 34bd 27c9 733d c6e1 fcbc
000001d0: e78e f83c c7d3 983d 7fa4 133e b4fa b63d
000001e0: f0ca 263e e0b2 863e 8eea 113e 5d42 2d3d
000001f0: 9765 293e 0497 383e da27 bf3c 7812 c63d
00000200: 244d eebc 7273 50bd 6c89 8a3d a71d a33b
00000210: 134d a0bd 4ecb 9abd 0368 f93b 1271 b6bc
00000220: 6066 813d e095 ec3d d1ee 0b3d fdc2 96bc
00000230: bacf 4f3d dabe d0bd 3ff3 ebbc 7709 073d
00000240: c719 95bd 2692 abbd 9c78 133d 08bd edbd
00000250: 1bd2 f5bc 865b 283d 1e79 0ebb cb49 8e3d
00000260: 4ea2 bb3c 7129 01be 9c5e 73bd ee9c bebc
00000270: edf8 1ebd eb3d 37bd 9621 3dbc 964e 133d
00000280: dd37 833d f0cd 123d f250 edbd 2162 c83c
00000290: a54f 2a3d 3891 e8bd 87f7 563d 306c e13c
000002a0: 6ed7 cabb 4e2b 9abb a69d 00bc 2c9d c43d
000002b0: 4f9a a23c b9da c5b9 e1cf 8f3d 5168 313e
000002c0: 991d 6e3d e353 aebb d411 083e 88af 03bc
000002d0: 75b4 c13d 0072 703d 8412 133e a514 c73b
000002e0: 100d ad3d 7863 54bc 31e0 cd3d 8069 813d
000002f0: 17d4 723d 6f64 b3bd bdc7 ebbc c606 bebc
00000300: 0e40 aebc 7a86 063d 86c6 cb3c d32f 73bc
00000310: 3a64 2c3e 285d 6f3d ec07 70bd af13 093d
00000320: abf0 003d 15ba 093d a883 d93d 2e83 573d
00000330: cef7 1dbc 56f3 a23c bcf0 6b3d c3c0 b73a
00000340: 3707 c6bb 0db5 c73d dc30 0a3e 7e67 2c3e
00000350: d58b 3d3e d73f 1f3e fa6c ed3d f1e5 953d
00000360: d554 1cbe a483 dbbd aeb1 34be 101b 80bc
00000370: eb3a b3bd d2bd 8ebd ba95 56bd cdf4 c73d
00000380: f718 cdbd f9f7 81bd aeea 923d 7d0e 153b
00000390: 9ee1 cc3d e58b 7b3d baf4 ca3c 7f29 4b3d
000003a0: 15fd 87bc df77 fa3d 1573 87bc a304 9bbc
000003b0: 3b38 903d f85d e43c 71c7 8f3d 16e5 e93c
000003c0: 8800 7c3b 819a 353d 4779 cebc 6034 9cbc
000003d0: 0710 953d 85bd 323e ab0e 853d 0a00 f13d
000003e0: 1f2e 003d ca2f 23bd a882 4f3d 9334 ba3d
000003f0: 4d4a a7bd d5e7 24be f506 c9bd bf4e 0c3d

bias f4 [32]
0.016464185 0.025286024 -0.018406855 -0.06986701 0.010525871 -0.007262044 0.07458897 0.034751307
0.023515884 0.05506267 0.011357397 -0.022883348 0.07716367 0.066129856 -0.028762821 -0.17671938
0.0108097475 -0.04972097 0.02871915 -0.09864208 0.042217948 -0.073102266 0.008603814 -0.04895906
-0.043382324 0.026431834 -0.059465084 0.007312652 -0.10106642 0.00038973094 0.07525349 0.09350199
00000000: e6df 863c a324 cf3c f9c9 96bc 6f16 8fbd
00000010: b474 2c3c 71f6 edbb 1ac2 983d 6357 0e3d
00000020: 62a4 c03c 6589 613d 6014 3a3c dc75 bbbc
00000030: fc07 9e3d 176f 873d 02a0 ebbc edf5 34be
00000040: 5e1b 313c 37a8 4bbd 6c44 eb3c dc04 cabd
00000050: baec 2c3d a4b6 95bd 03f7 0c3c 4c89 48bd
00000060: aab1 31bd 9387 d83c a991 73bd f99e ef3b
00000070: e9fb cebd cd54 cc39 801e 9a3d f97d bf3d

weight f4 [64, 32, 3, 3]
0.06474838 0.094431855 0.114427075 0.05153608 -0.041297425 0.052764874 -0.045267973 -0.03795712
0.0193392 -0.067826144 -0.107715786 -0.10917179 -0.0590105 -0.05534697 -0.05062361 0.09104669
0.05649622 0.009480143 0.10798134 0.05872852 0.11393548 -0.048809417 0.01895729 0.012131637
-0.020462893 -0.07158918 0.0039710896 -0.08184092 -0.07818075 -0.0779671 0.006918588 0.06965098
-0.02081196 0.0031264913 0.009187043 0.07916212 0.09538846 0.021265281 0.051004432 -0.009303257
-0.038668938 -0.012285512 0.034297004 -0.030357165 -0.033922628 0.01359462 0.026851507 0.03375673
-0.0041694874 0.025413215 0.0428496 0.05637344 -0.036805466 0.0482336 -0.11956405 -0.15034354
-0.1944125 -0.25977123 -0.36169362 -0.29725075 -0.21922979 -0.19841559 -0.2472942 0.11006118
0.14185531 0.038331766 -0.04708336 -0.051265415 0.0036793356 -0.10806024 -0.09806086 -0.00931114
0.016789408 -0.018308312 0.07345249 0.02036831 0.020752594 0.0068076677 -0.03668388 0.031784542
0.043483276 -0.0754342 -0.0143739525 -0.08103173 -0.0034174656 -0.024069808 0.027040556 -0.0006872351
-0.008164605 0.06692036 -0.04405348 -0.0410397 -0.06481562 -0.061181862 0.022773806 -0.008433799
0.060370352 -0.053758472 0.053871095 0.0042649913 0.03053413 0.04742201 -0.014084273 0.007871513
0.0007251853 -0.017316138 -0.010261275 0.044373706 -0.015037436 0.047183175 0.044182528 0.023948973
-0.025020774 0.046714023 -0.05577531 0.003632855 0.0413656 -0.026447706 0.011486883 -0.01465471
0.072376184 0.022903154 0.033307847 0.017962307 -0.042744774 -0.031612664 -0.010819799 0.01889843
0.02784042 -0.05138229 0.048929915 0.042950545 -0.059337508 0.0054920935 0.0026027132 0.051675595
-0.006035632 -0.039685965 0.019335784 -0.012538759 0.03582025 -0.044040564 -0.026960047 -0.013473884
0.07904452 0.038653113 0.048897453 0.036537632 -0.0066511086 0.04919485 0.045323778 0.013257088
-0.056704164 -0.047703676 -0.109089 -0.0908188 0.075238675 0.0052269814 0.02188447 0.089309335
0.09196675 0.09073973 0.016667357 -0.039050568 -0.02210863 -0.009906677 0.032221004 -0.05264463
0.027693568 -0.043857213 -0.033035967 0.014234248 -0.035964504 -0.04533278 0.059484057 -0.027282583
0.030242443 -0.015175829 -0.04329912 0.07423126 -0.006144788 -0.039761737 0.03768471 0.037802696
0.036742985 -0.0469841 0.04978196 -0.021963531 -0.013271747 0.0869454 0.05957693 0.05966305
0.0146948835 -0.06121378 0.028208569 -0.042281568 -0.026121655 0.030663107 -0.032643452 0.038007718
0.00014559511 -0.05792135 -0.046673015 0.036644135 -0.038996957 -0.019627761 0.0698778 -0.0072387257
-0.016575092 0.033269487 0.025212282 0.021947412 0.030430071 0.0012193823 -0.004651173 0.0045174304
-0.11147334 -0.06869562 -0.10937501 0.044156063 0.028195564 -0.0343575 0.022664174 0.016352655
0.11222917 0.016997462 -0.07687351 0.005717171 0.015183742 -0.0033510544 -0.010750719 0.073154345
0.013444054 -0.02409965 0.12240742 0.14326254 0.17184019 0.058828108 -0.010851153 0.060976174
-0.041391324 -0.13259572 -0.027815485 -0.14817029 -0.14128792 -0.18605466 0.051968697 -0.02872641
-0.05957206 0.0026704054 0.09857854 0.01889045 -0.018219568 -0.01793433 0.00565091 0.022782333
00000000: cc9a 843d 7d65 c13d be58 ea3d 7f17 533d
00000010: 7d27 29bd fb1f 583d e96a 39bd ed78 1bbd
00000020: 3e6d 9e3c 6fe8 8abd 189a dcbd 7695 dfbd
00000030: feb4 71bd 81b3 62bd b45a 4fbd b076 ba3d
00000040: 9568 673d 9a52 1b3c 5225 dd3d 518d 703d
00000050: 0157 e93d 62ec 47bd 524c 9b3c c6c3 463c
00000060: cca1 a7bc 599d 92bd ea1f 823b 369c a7bd
00000070: 3b1d a0bd 37ad 9fbd 53b5 e23b 2ca5 8e3d
00000080: d87d aabc d2e5 4c3b 4085 163c c01f a23d
00000090: 065b c33d 8734 ae3c 06ea 503d b06c 18bc
000000a0: 5263 1ebd 2c49 49bc 047b 0c3d 97af f8bc
000000b0: 74f2 0abd f8bb 5e3c b1f7 db3c 7f44 0a3d
000000c0: 32a0 88bb 602f d03c 1083 2f3d d6e7 663d
000000d0: 54c1 16bd 9890 453d ffdd f4bd a8f3 19be
000000e0: 1214 47be bc00 85be e82f b9be 4031 98be
000000f0: c67d 60be 752d 4bbe b13a 7dbe c267 e13d
00000100: 8542 113e c501 1d3d 7bda 40bd affb 51bd
00000110: 0221 713b b04e ddbd 22d4 c8bd c08d 18bc
00000120: f189 893c 50fb 95bc 426e 963d 71db a63c
00000130: 5801 aa3c db12 df3b d641 16bd 8230 023d
00000140: 851b 323d 3f7d 9abd ba80 6bbc f7f3 a5bd
00000150: 8ff7 5fbb 0c2e c5bc 2884 dd3c 9127 34ba
00000160: d6c4 05bc 8b0d 893d 6c71 34bd 3f19 28bd
00000170: 0dbe 84bd d599 7abd 2290 ba3c eb2d 0abc
00000180: e746 773d d831 5cbd f0a7 5c3d 57c1 8b3b
00000190: b622 fa3c 953d 423d b9c1 66bc 85f7 003c
000001a0: 5d1a 3e3a 93da 8dbc e81e 28bc 34c1 353d
000001b0: 945f 76bc 2543 413d bdf8 343d a330 c43c
000001c0: 5ef8 ccbc 3457 3f3d a774 64bd 3115 6e3b
000001d0: fa6e 293d dca8 d8bc 7b33 3c3c 4f1a 70bc
000001e0: f739 943d 659f bb3c cf6d 083d b025 933c
000001f0: 2515 2fbd 487c 01bd 8745 31bc e1d0 9a3c
00000200: 9811 e43c 3c76 52bd bc6a 483d e9ec 2f3d
00000210: e30b 73bd 05f7 b33b 4892 2a3b caa9 533d
00000220: 8dc6 c5bb c08d 22bd 1466 9e3c 5e6f 4dbc
00000230: 41b8 123d e163 34bd 51db dcbc 91c1 5cbc
00000240: 18e2 a13d ba52 1e3d b248 483d 7ca8 153d
00000250: 8bf1 d9bb 8a80 493d 6da5 393d 4234 593c
00000260: a042 68bd ee64 43bd 0e6a dfbd 35ff b9bd
00000270: bc16 9a3d 1947 ab3b 0f47 b33c d0e7 b63d
00000280: 1059 bc3d c0d5 b93d fb89 883c 7df3 1fbd
00000290: 281d b5bc 9d4f 22bc 2cfa 033d e5a1 57bd
000002a0: 9fdd e23c 9fa3 33bd b950 07bd c336 693c
000002b0: 844f 13bd ddae 39bd 8ea5 733d b97f dfbc
000002c0: 00bf f73c 0aa4 78bc 6b5a 31bd 8f06 983d
000002d0: 385a c9bb 34dd 22bd 485b 1a3d 00d7 1a3d
000002e0: d07f 163d 6672 40bd 2be8 4b3d ddec b3bc
000002f0: be71 59bc 6e10 b23d f006 743d 3e61 743d
00000300: cfc2 703c 4dbb 7abd a815 e73c 702f 2dbd
00000310: 15fd d5bc 3231 fb3c 24b5 05bd fbad 1b3d
00000320: e4aa 1839 f03e 6dbd 342c 3fbd 2918 163d
00000330: 46bb 1fbd 66ca a0bc 181c 8f3d d532 edbb
00000340: 7dc8 87bc 9645 083d fd89 ce3c 0fcb b33c
00000350: 7c48 f93c aed3 9f3a de68 98bb f406 943b
00000360: 224c e4bd 4ab0 8cbd 0100 e0bd fddc 343d
00000370: 62fa e63c 73ba 0cbd 38aa b93c 01f6 853c
00000380: 68d8 e53d 433e 8b3c dc6f 9dbd 1b57 bb3b
00000390: 3bc5 783c 5d9d 5bbb c923 30bc f2d1 953d
000003a0: 7344 5c3c a16c c5bc beb0 fa3d 6ab3 123e
000003b0: e0f6 2f3e bef5 703d 09c9 31bc 27c2 793d
000003c0: f389 29bd 2cc7 07be 4ddd e3bc f4b9 17be
000003d0: c8ad 10be 1d85 3ebe 21dd 543d a653 ebbc
000003e0: d501 74bd f801 2f3b 8ce3 c93d 25c0 9a3c
000003f0: 3441 95bc 04eb 92bc 452b b93b 04a2 ba3c

bias f4 [64]
0.050923925 -0.015430196 0.020639878 0.013217119 0.004651076 -0.03632461 -0.03096637 0.00900434
0.02514615 0.040548462 -0.054444607 -0.0020175937 0.005559852 -0.017633177 -0.004860527 -0.09665445
-0.041962285 -0.0037477138 -0.01863793 -0.051326144 0.05037728 -0.009007618 -0.10965989 -0.056064144
0.0013765602 -0.045270454 -0.057509165 0.01945012 0.005383022 0.045886844 -0.063992545 -0.005847758
0.039784838 -0.061518617 -0.06001961 -0.007410856 -0.038638633 0.055691402 0.014759124 -0.019818835
-0.012292779 -0.055841293 0.03886399 -0.029703006 0.031697296 0.005908202 -0.086825386 0.06676575
0.09075528 0.021202497 0.06533977 -0.0306031 0.06004822 -0.03176844 -0.027274208 0.044221025
0.040980432 -0.020914888 -0.05440518 -5.038522e-06 -0.008824972 -0.024728809 -0.024375804 0.023296759
00000000: 9b95 503d efce 7cbc f614 a93c 9d8c 583c
00000010: 0e68 983b 1dc9 14bd 2fad fdbc f086 133c
00000020: 4cff cd3c 2516 263d 4f01 5fbd 9b39 04bb
00000030: 6b2f b63b 7473 90bc 0e45 9fbb c5f2 c5bd
00000040: a5e0 2bbd 349c 75bb 92ae 98bc 5d3b 52bd
00000050: 6858 4e3d b094 13bc 5d95 e0bd 84a3 65bd
00000060: b26d b43a 836d 39bd bb8e 6bbd dc55 9f3c
00000070: 1064 b03b d8f3 3b3d 860e 83bd 8d9e bfbb
00000080: 6df5 223d f2fa 7bbd 1fd7 75bd c4d6 f2bb
00000090: 8b43 1ebd ab1c 643d 41d0 713c 1c5b a2bc
000000a0: a767 49bc d7b9 64bd d92f 1f3d b853 f3bc
000000b0: 06d5 013d 9799 c13b 82d1 b1bd 7bbc 883d
000000c0: e7dd b93d dcb0 ad3c dbd0 853d 5ab3 fabc
000000d0: 1ff5 753d a01f 02bd 296e dfbc 1b21 353d
000000e0: 19db 273d b355 abbc f7d7 5ebd 9310 a9b6
000000f0: 9e96 10bc 1294 cabc c4af c7bc d8d8 be3c

weight f4 [64, 64, 3, 3]
-0.01330489 0.0034609472 -0.0010327941 -0.009435303 0.039632402 -0.029930107 -0.010066593 0.0210778
0.03684774 -0.0020742528 0.0032118962 0.0037056971 0.013794034 0.01880608 0.0023827746 0.013683282
-0.022264414 -0.032479234 0.0053796656 -0.029020388 0.0074965567 -0.012878366 -0.033009686 -0.034727715
0.03194345 0.010136301 0.00944791 -0.019214487 -0.0369561 -0.016188784 -0.0019323631 -0.037861012
-0.021433676 0.037030354 0.001373933 0.013875389 0.0023450048 -0.03817838 -0.022251492 0.018442458
-0.004263924 0.0070337593 0.01644609 0.009064016 -0.008273784 -0.014829916 -0.02355993 0.0083037745
0.0065670526 0.022201328 -0.020475648 -0.011949573 -0.012825471 -0.024602259 0.038303267 -0.031279806
0.008539128 0.0022108573 -0.000667717 -0.003297891 0.031136198 0.003209304 0.0073171128 -0.03770047
0.0061571123 0.011612284 0.008671472 0.03599886 -0.030653369 0.0366673 -0.009620263 -0.025439413
0.023671273 0.030101534 0.020445509 -0.009062952 -0.006595381 -0.037629735 -0.0055445507 -0.00019770711
0.03644616 0.037924927 -0.0117874695 0.022575894 0.015925774 -0.02635051 -0.004418889 -0.00024767773
-0.041424535 0.006945849 0.015322052 -0.018336343 -0.023137454 -0.008400658 0.029722879 -0.013335159
-0.022794148 0.02354836 0.0112670725 -0.02151219 -0.013952844 -0.03300364 0.009370274 -0.021404354
-0.035650916 -0.0023646166 -0.044885118 -0.044812366 -0.00711744 -0.034212217 0.011368128 -0.005390605
-0.022159642 -0.040402837 -0.036982596 -0.036991075 0.010533501 -0.033307083 -0.02096766 0.03724023
0.011104638 0.032356367 0.020797083 -0.020700492 0.031659227 0.0112274345 -0.0089792535 0.015911084
-0.02409306 -0.0018148267 -0.032004032 -0.0053631132 -0.03843337 -0.008264279 0.02076472 -0.03745526
0.0071124546 -0.029168438 -0.02047108 -0.004977485 0.028176505 0.030054491 -0.009530077 -0.006876234
-0.031577624 0.040659934 -0.012708848 -0.010550667 -0.0015845518 -0.011927155 -0.035670925 0.03598921
-0.0054449555 -0.03804116 -0.031159963 0.03256956 0.011814062 -0.04079404 -0.026022132 0.028701965
0.025602687 -0.011542743 0.007694363 -0.0064317207 0.027108038 0.024157394 0.021395361 -0.03533719
0.03843826 -0.04105312 0.018131275 -0.0070796805 -0.009439711 -0.032347027 -0.0015875095 -0.03801669
0.016082253 0.03774577 -0.043149553 -0.022527277 -0.038914435 -0.0057442267 0.027855534 0.03999115
-0.042151462 0.03655698 0.0026246416 -0.035277966 0.022297896 0.041060947 -0.033734754 -0.009803333
0.041315496 -0.04056991 0.024797674 -0.03368992 -0.017613955 -0.035810377 -0.009387454 0.028721483
-0.036057726 0.0033162464 0.023561034 0.026147813 0.0071099238 -0.023853973 -0.021740185 0.004985035
-0.012245422 -0.040695008 -0.008157327 0.037189905 -0.0024360747 -0.009814319 -0.041241746 0.033470977
0.03912053 0.02554465 -0.01902547 0.015223791 -0.022377552 -0.0107926745 -0.034887318 -0.024227655
-0.0032117346 0.028770303 0.01772444 -0.0023859541 -0.027845843 -0.022811595 0.0115635535 0.005570173
0.035853993 -0.036054764 0.03956345 0.00046650693 -0.0049586706 0.012988985 0.0003790073 -0.0035970546
0.030019425 0.01337174 0.00502171 0.018544799 -0.024709035 0.024982587 0.014970039 0.015456196
0.03758848 0.026250605 -0.023048285 0.023414554 0.006747563 0.02071684 -0.026598832 -0.024321701
00000000: c1fc 59bc 0fd1 623b d25e 87ba 8796 1abc
00000010: 9655 223d fc2f f5bc 5aee 24bc 5aab ac3c
00000020: a8ed 163d 30f0 07bb ad7e 523b 48db 723b
00000030: 5f00 623c 350f 9a3c 5328 1c3b d82f 603c
00000040: dc63 b6bc f208 05bd e847 b03b 2abc edbc
00000050: ada5 f53b c8ff 52bc 2a35 07bd a63e 0ebd
00000060: 23d7 023d ba12 263c 68cb 1a3c b367 9dbc
00000070: 485f 17bd 579e 84bc 5947 fdba 2614 1bbd
00000080: ad95 afbc 24ad 173d 8b15 b43a 9955 633c
00000090: a7ae 193b ef60 1cbd c348 b6bc a314 973c
000000a0: 63b8 8bbb 737b e63b f3b9 863c 3d81 143c
000000b0: c48e 07bc 2df9 72bc c100 c1bc 8e0c 083c
000000c0: 6e30 d73b 8fdf b53c 8cbc a7bc 24c8 43bc
000000d0: ed21 52bc ad8a c9bc e3e3 1c3d 411f 00bd
000000e0: b3e7 0b3c 08e4 103b bb09 2fba 6e21 58bb
000000f0: 5711 ff3c 3053 523b 64c4 ef3b cf6b 1abd
00000100: 9ac1 c93b 7341 3e3c ca12 0e3c 8a73 133d
00000110: c61c fbbc 7330 163d 4f9e 1dbc 5166 d0bc
00000120: 42ea c13c 7e97 f63c 577d a73c c77c 14bc
00000130: 111e d8bb a321 1abd 10af b5bb 994f 4fb9
00000140: 9248 153d 2b57 1b3d 3b20 41bc 15f1 b83c
00000150: c576 823c 06dd d7bc 54cc 90bb beda 81b9
00000160: c6ac 29bd 019a e33b 5809 7b3c 1936 96bc
00000170: c28a bdbc eaa2 09bc 657d f33c b67b 5abc
00000180: cbba babc 7ee8 c03c 8799 383c 553a b0bc
00000190: 789a 64bc d32e 07bd c785 193c 2f58 afbc
000001a0: b206 12bd aff7 1abb 75d9 37bd 2c8d 37bd
000001b0: 6a39 e9bb 1c22 0cbd 6241 3a3c aca3 b0bb
000001c0: 2388 b5bc 727d 25bd 107b 17bd f483 17bd
000001d0: b594 2c3c 026d 08bd 5fc4 abbc 3689 183d
000001e0: 3af0 353c 1c88 043d a55e aa3c 1494 a9bc
000001f0: 1bad 013d 46f3 373c b81d 13bc f657 823c
00000200: cf5e c5bc 7bdf edba a916 03bd 0ebd afbb
00000210: 4f6c 1dbd e666 07bc c61a aa3c b06a 19bd
00000220: 980f e93b a6f2 eebc f7b2 a7bc 2c1a a3bb
00000230: 6ad2 e63c d634 f63c 0a24 1cbc 0852 e1bb
00000240: 8a57 01bd 088b 263d c638 50bc b4dc 2cbc
00000250: bcb0 cfba 1d6a 43bc ad1b 12bd 6c69 133d
00000260: 996b b2bb 0cd1 1bbd 2e43 ffbc a967 053d
00000270: c48f 413c a717 27bd 5e2c d5bc 6220 eb3c
00000280: babc d13c c61d 3dbc ff20 fc3b 2fc1 d2bb
00000290: ad11 de3c bae5 c53c 5345 af3c bbbd 10bd
000002a0: 7071 1d3d 5127 28bd 0a88 943c aafc e7bb
000002b0: 05a9 1abc 517e 04bd fb13 d0ba 64b7 1bbd
000002c0: eebe 833c 4f9b 1a3d 96bd 30bd 208b b8bc
000002d0: be64 1fbd 113a bcbb 4a31 e43c c3cd 233d
000002e0: 03a7 2cbd c6bc 153d 2e02 2c3b a17f 10bd
000002f0: 14aa b63c 862f 283d 742d 0abd 299e 20bc
00000300: 703a 293d a22c 26bd 7e24 cb3c 71fe 09bd
00000310: 244b 90bc e7ad 12bd d6cd 19bc 5149 eb3c
00000320: 44b1 13bd 6255 593b 1203 c13c f033 d63c
00000330: 5dfa e83b 6869 c3bc 7918 b2bc 8159 a33b
00000340: 06a1 48bc cfaf 26bd 4fa6 05bc 7154 183d
00000350: 8da6 1fbb 3dcc 20bc 1bed 28bd dd18 093d
00000360: d93c 203d 0443 d13c 4ddb 9bbc 356d 793c
00000370: 2151 b7bc c2d3 30bc 01e6 0ebd 1379 c6bc
00000380: f77b 52bb b3af eb3c d832 913c ab5d 1cbb
00000390: f71c e4bc 62df babc 0f75 3d3c ff85 b63b
000003a0: a3db 123d 29ae 13bd 490d 223d 8095 f439
000003b0: 587c a2bb c0cf 543c 80b5 c639 90bc 6bbb
000003c0: 4ceb f53c 2415 5b3c 288d a43b 43eb 973c
000003d0: 9a6a cabc 48a8 cc3c e544 753c fc3b 7d3c
000003e0: 61f6 193d 820b d73c c2cf bcbc e1cf bf3c
000003f0: a91a dd3b 5db6 a93c cbe5 d9bc 4e3e c7bc

bias f4 [64]
0.038991977 0.0036198653 0.019910254 0.01269549 -0.04436721 0.027655268 0.006972063 -0.06050984
-0.0002741789 -0.050836235 -0.025738325 -0.013715014 -0.024906354 -0.049085356 0.031281013 -0.06222028
-0.015128162 0.046539187 0.032113604 0.021161122 0.008039876 -0.027366526 0.039277125 0.00993366
-0.04846341 -0.031103538 -0.045457426 -0.021809824 0.02097706 -0.05034472 0.032679882 0.041954197
-0.035949886 -0.039777853 -0.0026756732 0.001965538 -0.04727519 0.0036872616 -0.04671495 -0.0018766469
-0.027995838 0.010310839 0.024621697 -0.008395741 -0.028690232 0.06312334 -0.022390917 0.061078947
0.015727993 -0.0037705603 0.04347341 -0.024400335 0.022221195 -0.004788434 -0.0102079045 0.05702235
-0.04017159 0.020912599 -0.014128022 0.018583568 -0.057401888 -0.010605601 0.007915705 0.06126919
00000000: 0db6 1f3d 433b 6d3b d41a a33c bf00 503c
00000010: 64ba 35bd 4d8d e23c e775 e43b 2ad9 77bd
00000020: abbf 8fb9 a839 50bd 2ed9 d2bc f0b4 60bc
00000030: 6908 ccbc ba0d 49bd 8520 003d b1da 7ebd
00000040: 1cdc 77bc e09f 3e3d 8e89 033d 175a ad3c
00000050: afb9 033c c42f e0bc 0de1 203d cac0 223c
00000060: 9281 46bd d9cc febc 9131 3abd 84aa b2bc
00000070: 15d8 ab3c 4436 4ebd 57db 053d 2ad8 2b3d
00000080: 3040 13bd 1aee 22bd 595a 2fbb 41d0 003b
00000090: a1a3 41bd fca5 713b 2d58 3fbd d2f9 f5ba
000000a0: 8757 e5bc cbee 283c 71b3 c93c 4a8e 09bc
000000b0: c707 ebbc cf46 813d 286d b7bc eb2d 7a3d
000000c0: fed7 803c 811b 77bb 2d11 323d 36e3 c7bc
000000d0: 3909 b63c 4ce8 9cbb 0e3f 27bc 4590 693d
000000e0: f78a 24bd e650 ab3c 3879 67bc 913c 983c
000000f0: 3e1e 6bbd 1dc3 2dbc e0b0 013c 67f5 7a3d

weight f4 [256, 256]
-0.058753803 0.025741573 -0.016935214 -0.025987856 0.00925152 0.053316668 0.033240877 -0.008786194
0.055306926 0.014289252 0.023137089 0.03354528 0.047778763 0.022428216 -0.034447532 -0.009537547
-0.029230071 -0.057225272 0.08324556 0.006420606 -0.026064474 -0.025510408 -0.05374503 -0.06102607
0.06514564 -0.06358383 0.04783059 -0.015410142 -0.004562264 0.0043179616 0.041777156 0.039072063
-0.016451731 -0.0322652 0.04550274 -0.040684223 -0.09959027 0.06401794 0.0117471125 0.01990201
-0.0193935 0.010899104 0.011534974 -0.022523344 -0.03403368 -0.011046737 0.04132782 0.007990144
0.03950371 -0.029379182 0.020713521 0.035114333 0.027198302 -0.015281652 -0.0055398196 0.03326649
-0.03661785 -0.014312259 0.030912846 0.028866474 0.053174537 0.05338565 0.124359205 0.07528348
-0.019063603 -0.027759973 0.110855624 -0.014557662 0.001537398 -0.029942846 0.06936859 0.04601558
0.012976809 0.0369899 0.05089379 -0.055124894 -0.025654586 -0.036587108 -0.06965327 0.021521874
0.01180032 0.028911056 -0.08398381 0.062357627 -0.030198514 0.044593897 -0.052070387 -0.03582338
-0.071794555 -0.11153163 -0.06125906 -0.07618723 0.1359063 0.15790284 -0.058515284 -0.11762357
0.001581797 0.056213465 0.0057736705 0.02464872 -0.039077923 -0.023428336 0.008196086 0.017504558
0.01234331 0.06910342 -0.032338154 -0.03535973 0.053693887 0.003227677 0.07075771 0.084112875
0.021355908 0.03451833 0.033027723 -0.035590023 -0.013650815 -0.039125174 0.080764174 -0.016948592
-0.063070305 -0.0680596 -0.0068880776 -0.03762271 -0.013639446 -0.020599797 -0.017062517 0.036271106
0.0064195064 0.08237997 -0.02174357 -0.015682032 0.0011611596 -0.044586416 -0.011588168 -0.021817917
0.025313897 -0.05056686 -0.03930975 -0.014232483 -0.046566237 -0.094542176 -0.10059504 -0.031422228
0.04595827 0.038751643 -0.00056908315 -0.024219593 0.07587895 -0.00957654 0.028236397 -0.031779923
-0.012591019 -0.014187791 0.006415391 0.08490535 -0.024669576 0.011134448 -0.08364432 0.04328074
-0.0038756393 -0.046415232 -0.021516725 -0.0040877825 0.04213755 -0.09675375 0.08321703 -0.016311476
0.03899619 -0.01630843 0.007545734 0.040683582 -0.023687936 -0.005164618 0.010671095 0.028232384
-0.024266956 0.0609316 0.049750887 0.05899674 -0.060316656 -0.010742995 0.06640349 0.06545067
-0.021874677 0.010112423 -0.035041902 0.064081006 0.03950155 0.014047659 -0.018125651 0.046374958
-0.079758085 -0.051766533 -0.03925667 -0.017585859 0.08446143 0.08105702 -0.008900546 0.021463556
-0.06786824 0.03478092 -0.0184467 0.05680639 -0.04534726 -0.0331838 -0.037077017 0.098577075
0.03859148 0.059514634 0.015980538 -0.04051984 -0.123152986 -0.08208035 0.055957686 0.08883389
-0.038381595 0.05215247 -0.034134697 -0.004181472 0.0068827565 0.008913648 -0.009913591 -0.011228253
0.02846792 -0.01535325 -0.035509344 0.045778777 -0.018419854 0.0037357758 0.05777477 -0.020772198
-0.08359376 -0.03602532 0.041234452 0.0261968 -0.055220727 0.016484115 0.073994696 0.0032227782
-0.023541909 -0.028959524 0.018814448 0.093099214 0.01528436 -0.05009535 -0.0052028 0.024145514
-0.012722748 0.009206748 -0.0383325 -0.04944931 0.0023695093 -0.05743558 -0.059171803 -0.028179225
00000000: d4a7 70bd fedf d23c b8bb 8abc 7ce4 d4bc
00000010: b093 173c 9462 5a3d 9627 083d f8f3 0fbc
00000020: 8489 623d 781d 6a3c fe89 bd3c c766 093d
00000030: aab3 433d 61bb b73c db18 0dbd 5f43 1cbc
00000040: e773 efbc 0c65 6abd a67c aa3d f263 d23b
00000050: 2a85 d5bc 34fb d0bc c023 5cbd 79f6 79bd
00000060: 146b 853d 3d38 82bd 02ea 433d d27a 7cbc
00000070: 0b7f 95bb b07d 8d3b 861e 2b3d 070a 203d
00000080: c8c5 86bc 8428 04bd 1561 3a3d 80a4 26bd
00000090: fcf5 cbbd d61b 833d f676 403c 8a09 a33c
000000a0: 1edf 9ebc 2892 323c 30fd 3c3c e082 b8bc
000000b0: e666 0bbd 60fd 34bc 5c47 293d 18e9 023c
000000c0: a4ce 213d 9cac f0bc 67af a93c 0cd4 0f3d
000000d0: f9ce de3c e55f 7abc 6087 b5bb 7142 083d
000000e0: 99fc 15bd f77d 6abc f03c fd3c 6279 ec3c
000000f0: 8bcd 593d e9aa 5a3d 0ab0 fe3d 3a2e 9a3d
00000100: 462b 9cbc e268 e3bc 4608 e33d 4383 6ebc
00000110: 8482 c93a b34a f5bc 1f11 8e3d d57a 3c3d
00000120: af9c 543c b982 173d 0276 503d a4ca 61bd
00000130: 9129 d2bc 5ddc 15bd 60a6 8ebd a44e b03c
00000140: 2156 413c e1d6 ec3c b4ff abbd b66a 7f3d
00000150: e062 f7bc 17a8 363d c247 55bd 89bb 12bd
00000160: 0609 93bd b26a e4bd c8ea 7abd 0d08 9cbd
00000170: 052b 0b3e 48b1 213e b9ad 6fbd a0e4 f0bd
00000180: 4d54 cf3a 1740 663d 0f31 bd3b 1dec c93c
00000190: 2c10 20bd c8ec bfbc e048 063c b865 8f3c
000001a0: 983b 4a3c 1886 8d3d 0375 04bd 5dd5 10bd
000001b0: 1fee 5b3d 6f87 533b 6be9 903d 5f43 ac3d
000001c0: 96f2 ae3c 1863 0d3d 1448 073d d8c6 11bd
000001d0: aba7 5fbc b841 20bd b067 a53d c6d7 8abc
000001e0: 012b 81bd d562 8bbd 62b5 e1bb 451a 1abd
000001f0: fc77 5fbc e8c0 a8bc b1c6 8bbc 0391 143d
00000200: b95a d23b d4b6 a83d 921f b2bc 9b77 80bc
00000210: 0d32 983a 3fa0 36bd 4ddc 3dbc 7dbb b2bc
00000220: 175f cf3c 321f 4fbd 4303 21bd 5c2f 69bc
00000230: 3dbc 3ebd 549f c1bd c604 cebd 98b4 00bd
00000240: bd3e 3c3d 0bba 1e3d 862e 15ba 2b68 c6bc
00000250: 6c66 9b3d ece6 1cbc 0450 e73c aa2b 02bd
00000260: 904a 4ebc e973 68bc 3338 d23b dbe2 ad3d
00000270: da17 cabc 436d 363c b74d abbd 2547 313d
00000280: 70fe 7dbb e61d 3ebd d843 b0bc cef2 85bb
00000290: 6c98 2c3d d526 c6bd b16d aa3d a59f 85bc
000002a0: 78ba 1f3d 4299 85bc 3442 f73b d4a3 263d
000002b0: 340d c2bc f53b a9bb d1d5 2e3c 9a47 e73c
000002c0: 7fcb c6bc 6a93 793d 96c7 4b3d 91a6 713d
000002d0: 990e 77bd 6303 30bc 8efe 873d 000b 863d
000002e0: 8632 b3bc 94ae 253c 1988 0fbd e73c 833d
000002f0: 61cc 213d 2728 663c 3f7c 94bc abf3 3d3d
00000300: 3558 a3bd 2509 54bd 9acb 20bd 3810 90bc
00000310: 1dfa ac3d 3901 a63d 98d3 11bc 57d4 af3c
00000320: 81fe 8abd 7076 0e3d 891d 97bc d1ad 683d
00000330: 0cbe 39bd bceb 07bd 12de 17bd c7e2 c93d
00000340: 1a12 1e3d 9ec5 733d 9ee9 823c 22f8 25bd
00000350: a237 fcbd be19 a8bd e333 653d 8bee b53d
00000360: 0536 1dbd d49d 553d d3d0 0bbd bb04 89bb
00000370: bf88 e13b 8d0a 123c 9d6c 22bc b5f6 37bc
00000380: 8e35 e93c 338c 7bbc 3f72 11bd 8782 3b3d
00000390: 3ce5 96bc ebd3 743b 3da5 6c3d 752a aabc
000003a0: 3533 abbd 498f 13bd 75e5 283d ac9a d63c
000003b0: 212f 62bd b209 873c 888a 973d 3f35 533b
000003c0: f6da c0bc 863c edbc c220 9a3c cdaa be3d
000003d0: 416b 7a3c c830 4dbd 407c aabb d0cc c53c
000003e0: 1373 50bc e6d7 163c 8a02 1dbd 5c8b 4abd
000003f0: c549 1b3b 9241 6bbd 225e 72bd 1ed8 e6bc

bias f4 [256]
-0.062030453 0.0057917847 0.004859855 0.010929044 -0.014125289 0.043972895 0.04721859 0.04452674
-0.014157692 0.033661332 0.008588305 -0.031675052 -0.024161432 -0.013201565 0.035036597 0.1334679
-0.07066504 0.09809269 0.04563119 -0.006414774 -0.035972998 0.005719472 -0.0032836322 -0.069372706
-0.024788555 -0.026529646 -0.01671439 0.0077723945 -0.0569777 -0.040333033 0.0543246 0.011203476
0.021286724 0.026383433 0.09388455 -0.037061404 -0.088077575 -0.032328144 0.0026640787 -0.025063585
-0.013481645 -0.025541218 0.06486082 -0.0330704 -0.054093573 -0.070581414 -0.0006696765 -0.0716334
0.07345535 -0.008561768 0.076102264 -0.051216234 0.00075271045 0.07475686 0.003560465 0.016674785
0.046106424 0.07376078 -0.017983677 -0.075905286 -0.0042720814 0.02197641 0.097371444 0.03373851
0.042568535 -0.019646458 -0.0001398101 -0.014815436 0.061601754 -0.05973693 -0.08569407 0.010315627
-0.013852066 0.07703251 0.023867939 0.009241672 0.03922558 -0.04119131 0.0009396645 -0.00023421511
0.03743868 -0.0065605096 0.057412393 -0.030580705 -0.012402947 0.036697425 0.029067447 -0.018023305
-0.024766803 -0.021275947 -0.03347075 0.04297995 0.050375745 0.06633035 0.01770377 0.0041604144
-0.072539985 0.042436432 -0.0458628 -0.0693843 0.033907723 0.08344441 0.013365219 -0.06320497
0.049555007 -0.018378664 0.051019832 0.04083701 -0.026948364 -0.00332147 -0.025446163 -0.05857224
0.084981464 0.032146733 0.082855746 -0.019343825 0.053598642 0.030628407 0.020061163 0.033233684
-0.062493794 0.035402585 0.023983672 -0.04876069 0.10100237 -0.011146461 0.069670565 -0.020756096
-0.06259812 0.058426697 0.006252329 0.011657846 0.08705504 -0.030624356 -0.021441448 0.010836003
-0.060472477 -0.00046047254 0.05789541 -0.08491744 -0.00393268 0.024750073 -0.054856755 0.104460336
-0.06339243 0.0063802674 0.002432589 0.025607161 0.027049921 0.049828682 0.017350942 0.054270376
0.001256685 -0.026115023 0.01738415 0.03703805 0.098625064 -0.056340523 0.06878193 0.07639543
-0.030239724 0.12151834 -0.0028080745 0.04727086 -0.06958147 0.01857746 0.13101898 0.0007131082
0.027112683 -0.016379332 0.014163564 0.04705507 0.11375333 -0.04570141 -0.0053723794 0.012761966
0.06384712 -0.024994671 0.027826143 0.056311585 0.05192753 -0.015268454 -0.008639139 0.0059241913
0.052811187 0.09326664 0.025397819 -0.042827368 0.066365115 0.054174554 -0.052206855 0.051004905
-0.045503527 -0.039645154 0.063868724 -0.060927648 -0.05976015 0.028540263 -0.00384136 0.015317576
0.05971903 0.061211653 0.04836899 0.045563616 -0.058362108 0.05361186 0.076297365 0.105947
-0.03234557 0.012997871 0.017569514 -0.023337519 0.033076275 0.04746531 0.012896837 -0.08339339
0.041043676 0.009352507 -0.01854827 -0.010924619 -0.039675783 -0.008933463 -0.0075469613 0.05147277
-0.010232848 -0.025379328 -0.06220646 -0.0135889705 0.04176974 0.01768129 0.028540468 -0.047322873
-0.03248454 -0.005240102 0.01482453 0.014950981 -0.013970466 0.0031089215 0.04671185 0.047591876
0.084486544 -0.011898304 -0.043632746 0.008756127 0.003186814 0.016310036 0.10978468 -0.028567621
0.02472027 -0.03384864 0.023054434 -0.026144145 0.001633842 0.07507928 -0.066450134 0.006413686
00000000: a513 7ebd 03c9 bd3b 6b3f 9f3b bc0f 333c
00000010: c26d 67bc ec1c 343d 4868 413d ac61 363d
00000020: aaf5 67bc 77e0 093d f6b5 0c3c b3bd 01bd
00000030: 32ee c5bc 604b 58bc 8982 0f3d cfab 083e
00000040: d5b8 90bd d2e4 c83d c5e7 3a3d 0633 d2bb
00000050: 6c58 13bd 696a bb3b 3532 57bb 4713 8ebd
00000060: 5e11 cbbc b354 d9bc 9eec 88bc 92af fe3b
00000070: 7361 69bd 4034 25bd 7983 5e3d c98e 373c
00000080: 7f61 ae3c 1222 d83c 8b46 c03d b3cd 17bd
00000090: 0462 b4bd 846a 04bd d397 2e3b 2652 cdbc
000000a0: 1ee2 5cbc d13b d1bc c0d5 843d d474 07bd
000000b0: 3991 5dbd fd8c 90bd 3b8d 2fba 88b4 92bd
000000c0: c26f 963d a846 0cbc 81db 9b3d 1dc8 51bd
000000d0: 8b51 453a 201a 993d b156 693b 8f99 883c
000000e0: 17da 3c3d e40f 973d 8152 93bc 3b74 9bbd
000000f0: d1fc 8bbb df07 b43c ae6a c73d 6431 0a3d
00000100: 585c 2e3d 9cf1 a0bc fd99 12b9 71bc 72bc
00000110: 1f52 7c3d b6ae 74bd 5f80 afbd e002 293c
00000120: c7f3 62bc 38c3 9d3d b286 c33c 626a 173c
00000130: 00ab 203d 38b8 28bd d153 763a a497 75b9
00000140: 4d59 193d 8bf9 d6bb 4229 6b3d 6384 fabc
00000150: bb35 4bbc 0a50 163d db1e ee3c 9ca5 93bc
00000160: c0e3 cabc e54a aebc a018 09bd be0b 303d
00000170: cc56 4e3d 35d8 873d 7f07 913c 1654 883b
00000180: d88f 94bd d3d1 2d3d a2da 3bbd 5b19 8ebd
00000190: d3e2 0a3d e7e4 aa3d cbf9 5a3c 9b71 81bd
000001a0: 31fa 4a3d da8e 96bc 2cfa 503d b544 273d
000001b0: d1c2 dcbc 05ad 59bb 7974 d0bc 72e9 6fbd
000001c0: c30a ae3d 4bac 033d 46b0 a93d f176 9ebc
000001d0: 408a 5b3d 6de8 fa3c 4f57 a43c 0b20 083d
000001e0: 7ef9 7fbd 4d02 113d 6879 c43c 4ab9 47bd
000001f0: 55da ce3d a59f 36bc 71af 8e3d b008 aabc
00000200: 7133 80bd d550 6f3d 56e0 cc3b 8d00 3f3c
00000210: ea49 b23d eedf fabc faa5 afbc 7e89 313c
00000220: fdb1 77bd 946b f1b9 bd23 6d3d 32e9 adbd
00000230: b6dd 80bb aac0 ca3c 7ab1 60bd 4def d53d
00000240: e4d3 81bd 9011 d13b 126c 1f3b 1cc6 d13c
00000250: cc97 dd3c 2919 4c3d 9023 8e3c 9d4a 5e3d
00000260: 5ab7 a43a 2cef d5bc 3469 8e3c 36b5 173d
00000270: f0fb c93d 52c5 66bd 8add 8c3d 3575 9c3d
00000280: 4cb9 f7bc 9cde f83d ac07 38bb 179f 413d
00000290: bb80 8ebd c22f 983c d729 063e e2ef 3a3a
000002a0: 6b1b de3c f32d 86bc 4b0e 683c d1bc 403d
000002b0: 82f7 e83d 6731 3bbd c90a b0bb 9117 513c
000002c0: 47c2 823d a0c1 ccbc a7f3 e33c faa6 663d
000002d0: f6b1 543d 8a28 7abc 2d8b 0dbc b81f c23b
000002e0: 8b50 583d 9502 bf3d 160f d03c c06b 2fbd
000002f0: 6fea 873d 23e6 5d3d dbd6 55bd 85ea 503d
00000300: e861 3abd f562 22bd 9bcd 823d 458f 79bd
00000310: 0fc7 74bd 45cd e93c 54bf 7bbb 92f6 7a3c
00000320: f19b 743d 12b9 7a3d 901e 463d eaa0 3a3d
00000330: 1b0d 6fbd 1c98 5b3d cb41 9c3d befa d83d
00000340: ca7c 04bd 06f5 543c f1ed 8f3c 532e bfbc
00000350: fd7a 073d fc6a 423d 414d 533c 27ca aabd
00000360: 6a1d 283d 423b 193c 8bf2 97bc 2cfd 32bc
00000370: 1383 22bd a95d 12bc 804c f7bb 1cd5 523d
00000380: ada7 27bc 4fe8 cfbc 33cc 7ebd 46a4 5ebc
00000390: bf16 2b3d 5ad8 903c b3cd e93c a1d5 41bd
000003a0: 820e 05bd 29b5 abbb 96e2 723c f6f4 743c
000003b0: 62e4 64bc 0cbf 4b3b ed54 3f3d b3ef 423d
000003c0: 4807 ad3d 1bf1 42bc 40b8 32bd dc75 0f3c
000003d0: ded9 503b a09c 853c cad6 e03d a506 eabc
000003e0: 2a82 ca3c dfa4 0abd a7dc bc3c 3f2c d6bc
000003f0: a426 d63a 2ac3 993d 0217 88bd e629 d23b

weight f4 [5, 256]
-0.13451916 0.08541763 -0.073667414 -0.10584378 -0.024749525 0.041220665 0.09532011 0.052406404
-0.13633971 0.030306302 0.009664797 -0.008661499 -0.12535423 0.004686083 0.011275125 0.10335415
-0.043242563 0.06991312 -0.14332658 -0.08636922 0.021466527 -0.0050908998 0.047600396 -0.06520201
0.075542726 -0.10573601 0.009209876 0.0419961 0.090666555 0.003906597 0.06818577 0.16101366
-0.17363155 0.054120827 0.07040326 -0.13788265 -0.036488507 0.050029606 0.047371473 0.010779621
0.021247271 -0.11611229 0.07052952 -0.029687444 -0.14348999 -0.124646746 -0.14090434 -0.14745983
-0.121919125 -0.17574407 -0.07546854 -0.09732796 -0.025669103 0.07297437 0.039571248 0.012122773
-0.1478228 -0.05353115 0.019589663 -0.046910103 0.07676697 0.10615171 0.08139161 -0.17020443
-0.066091165 -0.19886054 0.005600987 -0.19062851 0.06422058 -0.089011416 -0.06365437 -0.0939699
-0.16362299 0.016920168 0.0058413967 0.004070701 0.04674302 -0.088352546 -0.012669788 0.0875575
-0.03011549 0.072187826 -0.16639732 -0.048094075 -0.03558478 -0.07510002 -0.024088318 -0.07839181
-0.16984035 -0.071143374 0.005286756 -0.009955002 0.05296656 0.12570895 -0.09738225 0.061208762
-0.195308 -0.016573722 -0.016143385 -0.08743291 0.05588324 0.04117648 -0.101629175 -0.16606279
-0.065586075 0.035375904 0.073881984 0.12076409 -0.08688506 -0.093153045 0.07524239 -0.15568988
0.07705832 0.06867148 0.093131095 -0.052417614 0.10340284 -0.15733837 -0.06962137 0.04459595
-0.15896954 -0.034229144 -0.02287143 -0.027781975 0.07849022 0.050382577 -0.057570968 -0.07794959
-0.065182835 0.042210024 0.010834298 -0.13810743 -0.08324235 0.021606324 -0.07880241 0.06628943
-0.07628332 -0.07092408 0.026406346 -0.23246309 -0.13063376 -0.1856568 -0.116871715 0.085612364
-0.133145 0.066308364 -0.08604162 -0.02001273 0.031634416 0.08639583 0.07477044 -0.095444754
0.0881849 -0.1350816 0.1303727 -0.15406987 0.061340068 0.025655461 0.06977324 0.035770144
-0.07206936 0.054749385 -0.17591321 0.15411715 -0.094600536 0.04853344 0.1332442 -0.10526641
0.073680714 -0.0806992 0.04879377 0.079563044 0.18440846 -0.14335336 -0.12060269 -0.15155208
0.055921696 -0.15659562 -0.12639603 0.07498186 -0.09845351 -0.19161333 0.052963883 -0.12579502
0.03314408 0.07977087 0.074127235 0.072589315 0.032708157 0.040004387 -0.030185942 -0.07988604
-0.14167148 -0.18239515 0.13035963 -0.19145569 -0.114604555 0.04010052 0.010738949 -0.12151561
0.06224243 0.12823164 -0.12097412 0.04748635 -0.16012847 -0.16643515 0.052363258 0.07375415
-0.10129085 0.026844723 0.07878919 0.016116045 0.038780306 -0.11971837 -0.096677296 -0.19003354
0.062814735 0.052084565 -0.15456578 -0.09444633 -0.09027427 0.081830405 -0.14667624 -0.15398222
-0.040529475 -0.06942156 -0.07659151 -0.057312645 0.020168167 -0.1343165 0.108755924 -0.0149620315
-0.12201945 -0.04713109 -0.182365 -0.12766057 0.15024821 -0.085669585 0.089857325 0.041924343
0.09571213 0.081008576 -0.1221012 0.08229123 0.06846042 -0.1679785 0.13826737 -0.20153803
-0.063461274 0.06334422 -0.055345286 -0.1186742 0.05772928 -0.02900525 -0.03828868 0.10843933
00000000: 64bf 09be 70ef ae3d f1de 96bd a0c4 d8bd
00000010: 84bf cabc 00d7 283d 3137 c33d 19a8 563d
00000020: a39c 0bbe ec44 f83c 1959 1e3c f6e8 0dbc
00000030: dc5c 00be b78d 993b 4dbb 383c 57ab d33d
00000040: 1d1f 31bd 9c2e 8f3d 34c4 12be 58e2 b0bd
00000050: 92da af3c 90d1 a6bb a2f8 423d a288 85bd
00000060: 25b6 9a3d 1f8c d8bd 05e5 163c 1a04 2c3d
00000070: 63af b93d e902 803b fba4 8b3d c4e0 243e
00000080: 78cc 31be cdad 5d3d 962f 903d 1c31 0dbe
00000090: f974 15bd d8eb 4c3d 9708 423d 029d 303c
000000a0: c20e ae3c 48cc edbd c871 903d 1533 f3bc
000000b0: 0aef 12be cb46 ffbd 3a49 10be b6ff 16be
000000c0: bcb0 f9bd 41f6 33be 408f 9abd e253 c7bd
000000d0: 0348 d2bc 9673 953d 7615 223d 989e 463c
000000e0: dc5e 17be 7b43 5bbd 807a a03c cf24 40bd
000000f0: 0038 9d3d 1166 d93d a5b0 a63d 124a 2ebe
00000100: ce5a 87bd 19a2 4bbe 7c88 b73b 1f34 43be
00000110: 1486 833d 9e4b b6bd 395d 82bd 4a73 c0bd
00000120: c98c 27be 2a9c 8a3c 3069 bf3b 8463 853b
00000130: 9c75 3f3d 2ef2 b4bd f194 4fbc 5951 b33d
00000140: c3b4 f6bc 36d7 933d 0f64 2abe 4bfe 44bd
00000150: 59c1 11bd 0ace 99bd dd54 c5bc e38b a0bd
00000160: a1ea 2dbe 9eb3 91bd 863c ad3b 4e1a 23bc
00000170: 77f3 583d d9b9 003e 5870 c7bd 0ab6 7a3d
00000180: d2fe 47be 9dc5 87bc 223f 84bc 0710 b3bd
00000190: d3e5 643d aba8 283d f522 d0bd 5d0c 2abe
000001a0: fe51 86bd 53e6 103d 704f 973d 2a53 f73d
000001b0: cbf0 b1bd 06c7 bebd af18 9a3d 2b6d 1fbe
000001c0: c1d0 9d3d a2a3 8c3d 84bb be3d dab3 56bd
000001d0: dec4 d33d 4f1d 21be a695 8ebd 3eaa 363d
000001e0: e9c8 22be dc33 0cbd dd5c bbbc 0697 e3bc
000001f0: 7bbf a03d f65d 4e3d 89cf 6bbd 09a4 9fbd
00000200: 947e 85bd 6be4 2c3d 5782 313c 096c 0dbe
00000210: f77a aabd bfff b03c 2863 a1bd c1c2 873d
00000220: 6e3a 9cbd a540 91bd 1f52 d83c ce0a 6ebe
00000230: dbc4 05be d11c 3ebe 705a efbd 8955 af3d
00000240: 2a57 08be aecc 873d 9736 b0bd bdf1 a3bc
00000250: 1793 013d 4cf0 b03d 3f21 993d 8a78 c3bd
00000260: 499a b43d d552 0abe 6c80 053e 7ec4 1dbe
00000270: b93f 7b3d 672b d23c 46e5 8e3d b783 123d
00000280: 1a99 93bd e440 603d 9822 34be e3d0 1d3e
00000290: edbd c1bd 00cb 463d 2b71 083e ea95 d7bd
000002a0: eae5 963d 9f45 a5bd fadb 473d f3f1 a23d
000002b0: 92d5 3c3e 39cb 12be 8bfe f6bd 7830 1bbe
000002c0: 260e 653d 9a5a 20be f66d 01be 1790 993d
000002d0: fea1 c9bd 4936 44be a8f0 583d 69d0 00be
000002e0: 16c2 073d e95e a33d 05d0 973d b5a9 943d
000002f0: fdf8 053d a4db 233d 8248 f7bc 4b9b a3bd
00000300: 5412 11be cbc5 3abe ff7c 053e f60c 44be
00000310: cbb5 eabd 7140 243d 6bf2 2f3c 2ddd f8bd
00000320: ebf1 7e3d 284f 033e 48c1 f7bd 0c81 423d
00000330: b8f8 23be fa6d 2abe db7a 563d 6a0c 973d
00000340: 9471 cfbd 77e9 db3c 3a5c a13d cc05 843c
00000350: 19d8 1e3d e82e f5bd bffe c5bd 2798 42be
00000360: 03a5 803d a056 553d 7e46 1ebe 146d c1bd
00000370: b7e1 b8bd b396 a73d 4c32 16be 84ad 1dbe
00000380: 3c02 26bd e42c 8ebd 02dc 9cbd aac0 6abd
00000390: b637 a53c 448a 09be 6dbb de3d 4f23 75bc
000003a0: 55e5 f9bd 880c 41bd e4bd 3abe 74b9 02be
000003b0: abda 193e 8973 afbd 1e07 b83d dcb8 2b3d
000003c0: b904 c43d d3e7 a53d 3210 fabd 4e88 a83d
000003d0: fa34 8c3d 8e02 2cbe f695 0d3e fc5f 4ebe
000003e0: fcf7 81bd 9dba 813d bdb1 62bd 750b f3bd
000003f0: 8a75 6c3d 6b9c edbc 97d4 1cbd 7015 de3d

bias f4 [5]
0.12051414 -0.051333033 0.06200847 -0.08032894 0.053524587
00000000: 1ed0 f63d 9642 52bd 98fc 7d3d 8083 a4bd
00000010: 993c 5b3d
